module @iree_jax_mnist_module {
  "ml_program.global"() {is_mutable, sym_name = "_opt_state$0", sym_visibility = "private", type = tensor<784x128xf32>, value = dense<"…"> : tensor<784x128xf32>} : () -> ()
  "ml_program.global"() {is_mutable, sym_name = "_opt_state$1", sym_visibility = "private", type = tensor<784x128xf32>, value = dense<0.000000e+00> : tensor<784x128xf32>} : () -> ()
  "ml_program.global"() {is_mutable, sym_name = "_opt_state$2", sym_visibility = "private", type = tensor<128xf32>, value = dense<"…"> : tensor<128xf32>} : () -> ()
  "ml_program.global"() {is_mutable, sym_name = "_opt_state$3", sym_visibility = "private", type = tensor<128xf32>, value = dense<0.000000e+00> : tensor<128xf32>} : () -> ()
  "ml_program.global"() {is_mutable, sym_name = "_opt_state$4", sym_visibility = "private", type = tensor<128x128xf32>, value = dense<"…"> : tensor<128x128xf32>} : () -> ()
  "ml_program.global"() {is_mutable, sym_name = "_opt_state$5", sym_visibility = "private", type = tensor<128x128xf32>, value = dense<0.000000e+00> : tensor<128x128xf32>} : () -> ()
  "ml_program.global"() {is_mutable, sym_name = "_opt_state$6", sym_visibility = "private", type = tensor<128xf32>, value = dense<"…"> : tensor<128xf32>} : () -> ()
  "ml_program.global"() {is_mutable, sym_name = "_opt_state$7", sym_visibility = "private", type = tensor<128xf32>, value = dense<0.000000e+00> : tensor<128xf32>} : () -> ()
  "ml_program.global"() {is_mutable, sym_name = "_opt_state$8", sym_visibility = "private", type = tensor<128x10xf32>, value = dense<"…"> : tensor<128x10xf32>} : () -> ()
  "ml_program.global"() {is_mutable, sym_name = "_opt_state$9", sym_visibility = "private", type = tensor<128x10xf32>, value = dense<0.000000e+00> : tensor<128x10xf32>} : () -> ()
  "ml_program.global"() {is_mutable, sym_name = "_opt_state$10", sym_visibility = "private", type = tensor<10xf32>, value = dense<[0.0206470843, 0.00213364442, 0.0036999865, -0.00179457688, 0.016150061, -2.89006915E-4, -6.43779872E-4, 0.0193679947, 0.0116650732, -0.00290195039]> : tensor<10xf32>} : () -> ()
  "ml_program.global"() {is_mutable, sym_name = "_opt_state$11", sym_visibility = "private", type = tensor<10xf32>, value = dense<0.000000e+00> : tensor<10xf32>} : () -> ()
  func.func @get_params() -> (tensor<784x128xf32>, tensor<128xf32>, tensor<128x128xf32>, tensor<128xf32>, tensor<128x10xf32>, tensor<10xf32>) {
    %0 = "ml_program.global_load"() {global = @_opt_state$0} : () -> tensor<784x128xf32>
    %1 = "ml_program.global_load"() {global = @_opt_state$2} : () -> tensor<128xf32>
    %2 = "ml_program.global_load"() {global = @_opt_state$4} : () -> tensor<128x128xf32>
    %3 = "ml_program.global_load"() {global = @_opt_state$6} : () -> tensor<128xf32>
    %4 = "ml_program.global_load"() {global = @_opt_state$8} : () -> tensor<128x10xf32>
    %5 = "ml_program.global_load"() {global = @_opt_state$10} : () -> tensor<10xf32>
    return %0, %1, %2, %3, %4, %5 : tensor<784x128xf32>, tensor<128xf32>, tensor<128x128xf32>, tensor<128xf32>, tensor<128x10xf32>, tensor<10xf32>
  }
  func.func @get_opt_state() -> (tensor<784x128xf32>, tensor<784x128xf32>, tensor<128xf32>, tensor<128xf32>, tensor<128x128xf32>, tensor<128x128xf32>, tensor<128xf32>, tensor<128xf32>, tensor<128x10xf32>, tensor<128x10xf32>, tensor<10xf32>, tensor<10xf32>) {
    %0 = "ml_program.global_load"() {global = @_opt_state$0} : () -> tensor<784x128xf32>
    %1 = "ml_program.global_load"() {global = @_opt_state$1} : () -> tensor<784x128xf32>
    %2 = "ml_program.global_load"() {global = @_opt_state$2} : () -> tensor<128xf32>
    %3 = "ml_program.global_load"() {global = @_opt_state$3} : () -> tensor<128xf32>
    %4 = "ml_program.global_load"() {global = @_opt_state$4} : () -> tensor<128x128xf32>
    %5 = "ml_program.global_load"() {global = @_opt_state$5} : () -> tensor<128x128xf32>
    %6 = "ml_program.global_load"() {global = @_opt_state$6} : () -> tensor<128xf32>
    %7 = "ml_program.global_load"() {global = @_opt_state$7} : () -> tensor<128xf32>
    %8 = "ml_program.global_load"() {global = @_opt_state$8} : () -> tensor<128x10xf32>
    %9 = "ml_program.global_load"() {global = @_opt_state$9} : () -> tensor<128x10xf32>
    %10 = "ml_program.global_load"() {global = @_opt_state$10} : () -> tensor<10xf32>
    %11 = "ml_program.global_load"() {global = @_opt_state$11} : () -> tensor<10xf32>
    return %0, %1, %2, %3, %4, %5, %6, %7, %8, %9, %10, %11 : tensor<784x128xf32>, tensor<784x128xf32>, tensor<128xf32>, tensor<128xf32>, tensor<128x128xf32>, tensor<128x128xf32>, tensor<128xf32>, tensor<128xf32>, tensor<128x10xf32>, tensor<128x10xf32>, tensor<10xf32>, tensor<10xf32>
  }
  func.func @set_opt_state(%arg0: tensor<784x128xf32>, %arg1: tensor<784x128xf32>, %arg2: tensor<128xf32>, %arg3: tensor<128xf32>, %arg4: tensor<128x128xf32>, %arg5: tensor<128x128xf32>, %arg6: tensor<128xf32>, %arg7: tensor<128xf32>, %arg8: tensor<128x10xf32>, %arg9: tensor<128x10xf32>, %arg10: tensor<10xf32>, %arg11: tensor<10xf32>) {
    "ml_program.global_store"(%arg0) {global = @_opt_state$0} : (tensor<784x128xf32>) -> ()
    "ml_program.global_store"(%arg1) {global = @_opt_state$1} : (tensor<784x128xf32>) -> ()
    "ml_program.global_store"(%arg2) {global = @_opt_state$2} : (tensor<128xf32>) -> ()
    "ml_program.global_store"(%arg3) {global = @_opt_state$3} : (tensor<128xf32>) -> ()
    "ml_program.global_store"(%arg4) {global = @_opt_state$4} : (tensor<128x128xf32>) -> ()
    "ml_program.global_store"(%arg5) {global = @_opt_state$5} : (tensor<128x128xf32>) -> ()
    "ml_program.global_store"(%arg6) {global = @_opt_state$6} : (tensor<128xf32>) -> ()
    "ml_program.global_store"(%arg7) {global = @_opt_state$7} : (tensor<128xf32>) -> ()
    "ml_program.global_store"(%arg8) {global = @_opt_state$8} : (tensor<128x10xf32>) -> ()
    "ml_program.global_store"(%arg9) {global = @_opt_state$9} : (tensor<128x10xf32>) -> ()
    "ml_program.global_store"(%arg10) {global = @_opt_state$10} : (tensor<10xf32>) -> ()
    "ml_program.global_store"(%arg11) {global = @_opt_state$11} : (tensor<10xf32>) -> ()
    return
  }
  func.func @initialize(%arg0: tensor<2xui32>) {
    %0:12 = call @jit__initialize_optimizer$main(%arg0) : (tensor<2xui32>) -> (tensor<784x128xf32>, tensor<784x128xf32>, tensor<128xf32>, tensor<128xf32>, tensor<128x128xf32>, tensor<128x128xf32>, tensor<128xf32>, tensor<128xf32>, tensor<128x10xf32>, tensor<128x10xf32>, tensor<10xf32>, tensor<10xf32>)
    "ml_program.global_store"(%0#0) {global = @_opt_state$0} : (tensor<784x128xf32>) -> ()
    "ml_program.global_store"(%0#1) {global = @_opt_state$1} : (tensor<784x128xf32>) -> ()
    "ml_program.global_store"(%0#2) {global = @_opt_state$2} : (tensor<128xf32>) -> ()
    "ml_program.global_store"(%0#3) {global = @_opt_state$3} : (tensor<128xf32>) -> ()
    "ml_program.global_store"(%0#4) {global = @_opt_state$4} : (tensor<128x128xf32>) -> ()
    "ml_program.global_store"(%0#5) {global = @_opt_state$5} : (tensor<128x128xf32>) -> ()
    "ml_program.global_store"(%0#6) {global = @_opt_state$6} : (tensor<128xf32>) -> ()
    "ml_program.global_store"(%0#7) {global = @_opt_state$7} : (tensor<128xf32>) -> ()
    "ml_program.global_store"(%0#8) {global = @_opt_state$8} : (tensor<128x10xf32>) -> ()
    "ml_program.global_store"(%0#9) {global = @_opt_state$9} : (tensor<128x10xf32>) -> ()
    "ml_program.global_store"(%0#10) {global = @_opt_state$10} : (tensor<10xf32>) -> ()
    "ml_program.global_store"(%0#11) {global = @_opt_state$11} : (tensor<10xf32>) -> ()
    return
  }
  func.func private @jit__initialize_optimizer$main(%arg0: tensor<2xui32> {mhlo.sharding = ""}) -> (tensor<784x128xf32>, tensor<784x128xf32>, tensor<128xf32>, tensor<128xf32>, tensor<128x128xf32>, tensor<128x128xf32>, tensor<128xf32>, tensor<128xf32>, tensor<128x10xf32>, tensor<128x10xf32>, tensor<10xf32>, tensor<10xf32>) {
    %0 = stablehlo.iota dim = 0 : tensor<4xui32>
    %1 = "stablehlo.slice"(%arg0) {limit_indices = dense<1> : tensor<1xi64>, start_indices = dense<0> : tensor<1xi64>, strides = dense<1> : tensor<1xi64>} : (tensor<2xui32>) -> tensor<1xui32>
    %2 = stablehlo.reshape %1 : (tensor<1xui32>) -> tensor<ui32>
    %3 = "stablehlo.slice"(%arg0) {limit_indices = dense<2> : tensor<1xi64>, start_indices = dense<1> : tensor<1xi64>, strides = dense<1> : tensor<1xi64>} : (tensor<2xui32>) -> tensor<1xui32>
    %4 = stablehlo.reshape %3 : (tensor<1xui32>) -> tensor<ui32>
    %5 = "stablehlo.slice"(%0) {limit_indices = dense<2> : tensor<1xi64>, start_indices = dense<0> : tensor<1xi64>, strides = dense<1> : tensor<1xi64>} : (tensor<4xui32>) -> tensor<2xui32>
    %6 = "stablehlo.slice"(%0) {limit_indices = dense<4> : tensor<1xi64>, start_indices = dense<2> : tensor<1xi64>, strides = dense<1> : tensor<1xi64>} : (tensor<4xui32>) -> tensor<2xui32>
    %7 = stablehlo.xor %2, %4 : tensor<ui32>
    %8 = stablehlo.constant dense<466688986> : tensor<ui32>
    %9 = stablehlo.xor %7, %8 : tensor<ui32>
    %10 = stablehlo.broadcast_in_dim %2, dims = [] : (tensor<ui32>) -> tensor<2xui32>
    %11 = stablehlo.add %5, %10 : tensor<2xui32>
    %12 = stablehlo.broadcast_in_dim %4, dims = [] : (tensor<ui32>) -> tensor<2xui32>
    %13 = stablehlo.add %6, %12 : tensor<2xui32>
    %14 = stablehlo.add %11, %13 : tensor<2xui32>
    %15 = stablehlo.constant dense<13> : tensor<ui32>
    %16 = stablehlo.broadcast_in_dim %15, dims = [] : (tensor<ui32>) -> tensor<2xui32>
    %17 = stablehlo.shift_left %13, %16 : tensor<2xui32>
    %18 = stablehlo.constant dense<19> : tensor<ui32>
    %19 = stablehlo.broadcast_in_dim %18, dims = [] : (tensor<ui32>) -> tensor<2xui32>
    %20 = stablehlo.shift_right_logical %13, %19 : tensor<2xui32>
    %21 = stablehlo.or %17, %20 : tensor<2xui32>
    %22 = stablehlo.xor %14, %21 : tensor<2xui32>
    %23 = stablehlo.add %14, %22 : tensor<2xui32>
    %24 = stablehlo.constant dense<15> : tensor<ui32>
    %25 = stablehlo.broadcast_in_dim %24, dims = [] : (tensor<ui32>) -> tensor<2xui32>
    %26 = stablehlo.shift_left %22, %25 : tensor<2xui32>
    %27 = stablehlo.constant dense<17> : tensor<ui32>
    %28 = stablehlo.broadcast_in_dim %27, dims = [] : (tensor<ui32>) -> tensor<2xui32>
    %29 = stablehlo.shift_right_logical %22, %28 : tensor<2xui32>
    %30 = stablehlo.or %26, %29 : tensor<2xui32>
    %31 = stablehlo.xor %23, %30 : tensor<2xui32>
    %32 = stablehlo.add %23, %31 : tensor<2xui32>
    %33 = stablehlo.constant dense<26> : tensor<ui32>
    %34 = stablehlo.broadcast_in_dim %33, dims = [] : (tensor<ui32>) -> tensor<2xui32>
    %35 = stablehlo.shift_left %31, %34 : tensor<2xui32>
    %36 = stablehlo.constant dense<6> : tensor<ui32>
    %37 = stablehlo.broadcast_in_dim %36, dims = [] : (tensor<ui32>) -> tensor<2xui32>
    %38 = stablehlo.shift_right_logical %31, %37 : tensor<2xui32>
    %39 = stablehlo.or %35, %38 : tensor<2xui32>
    %40 = stablehlo.xor %32, %39 : tensor<2xui32>
    %41 = stablehlo.add %32, %40 : tensor<2xui32>
    %42 = stablehlo.constant dense<6> : tensor<ui32>
    %43 = stablehlo.broadcast_in_dim %42, dims = [] : (tensor<ui32>) -> tensor<2xui32>
    %44 = stablehlo.shift_left %40, %43 : tensor<2xui32>
    %45 = stablehlo.constant dense<26> : tensor<ui32>
    %46 = stablehlo.broadcast_in_dim %45, dims = [] : (tensor<ui32>) -> tensor<2xui32>
    %47 = stablehlo.shift_right_logical %40, %46 : tensor<2xui32>
    %48 = stablehlo.or %44, %47 : tensor<2xui32>
    %49 = stablehlo.xor %41, %48 : tensor<2xui32>
    %50 = stablehlo.broadcast_in_dim %4, dims = [] : (tensor<ui32>) -> tensor<2xui32>
    %51 = stablehlo.add %41, %50 : tensor<2xui32>
    %52 = stablehlo.broadcast_in_dim %9, dims = [] : (tensor<ui32>) -> tensor<2xui32>
    %53 = stablehlo.add %49, %52 : tensor<2xui32>
    %54 = stablehlo.constant dense<1> : tensor<ui32>
    %55 = stablehlo.broadcast_in_dim %54, dims = [] : (tensor<ui32>) -> tensor<2xui32>
    %56 = stablehlo.add %53, %55 : tensor<2xui32>
    %57 = stablehlo.add %51, %56 : tensor<2xui32>
    %58 = stablehlo.constant dense<17> : tensor<ui32>
    %59 = stablehlo.broadcast_in_dim %58, dims = [] : (tensor<ui32>) -> tensor<2xui32>
    %60 = stablehlo.shift_left %56, %59 : tensor<2xui32>
    %61 = stablehlo.constant dense<15> : tensor<ui32>
    %62 = stablehlo.broadcast_in_dim %61, dims = [] : (tensor<ui32>) -> tensor<2xui32>
    %63 = stablehlo.shift_right_logical %56, %62 : tensor<2xui32>
    %64 = stablehlo.or %60, %63 : tensor<2xui32>
    %65 = stablehlo.xor %57, %64 : tensor<2xui32>
    %66 = stablehlo.add %57, %65 : tensor<2xui32>
    %67 = stablehlo.constant dense<29> : tensor<ui32>
    %68 = stablehlo.broadcast_in_dim %67, dims = [] : (tensor<ui32>) -> tensor<2xui32>
    %69 = stablehlo.shift_left %65, %68 : tensor<2xui32>
    %70 = stablehlo.constant dense<3> : tensor<ui32>
    %71 = stablehlo.broadcast_in_dim %70, dims = [] : (tensor<ui32>) -> tensor<2xui32>
    %72 = stablehlo.shift_right_logical %65, %71 : tensor<2xui32>
    %73 = stablehlo.or %69, %72 : tensor<2xui32>
    %74 = stablehlo.xor %66, %73 : tensor<2xui32>
    %75 = stablehlo.add %66, %74 : tensor<2xui32>
    %76 = stablehlo.constant dense<16> : tensor<ui32>
    %77 = stablehlo.broadcast_in_dim %76, dims = [] : (tensor<ui32>) -> tensor<2xui32>
    %78 = stablehlo.shift_left %74, %77 : tensor<2xui32>
    %79 = stablehlo.constant dense<16> : tensor<ui32>
    %80 = stablehlo.broadcast_in_dim %79, dims = [] : (tensor<ui32>) -> tensor<2xui32>
    %81 = stablehlo.shift_right_logical %74, %80 : tensor<2xui32>
    %82 = stablehlo.or %78, %81 : tensor<2xui32>
    %83 = stablehlo.xor %75, %82 : tensor<2xui32>
    %84 = stablehlo.add %75, %83 : tensor<2xui32>
    %85 = stablehlo.constant dense<24> : tensor<ui32>
    %86 = stablehlo.broadcast_in_dim %85, dims = [] : (tensor<ui32>) -> tensor<2xui32>
    %87 = stablehlo.shift_left %83, %86 : tensor<2xui32>
    %88 = stablehlo.constant dense<8> : tensor<ui32>
    %89 = stablehlo.broadcast_in_dim %88, dims = [] : (tensor<ui32>) -> tensor<2xui32>
    %90 = stablehlo.shift_right_logical %83, %89 : tensor<2xui32>
    %91 = stablehlo.or %87, %90 : tensor<2xui32>
    %92 = stablehlo.xor %84, %91 : tensor<2xui32>
    %93 = stablehlo.broadcast_in_dim %9, dims = [] : (tensor<ui32>) -> tensor<2xui32>
    %94 = stablehlo.add %84, %93 : tensor<2xui32>
    %95 = stablehlo.broadcast_in_dim %2, dims = [] : (tensor<ui32>) -> tensor<2xui32>
    %96 = stablehlo.add %92, %95 : tensor<2xui32>
    %97 = stablehlo.constant dense<2> : tensor<ui32>
    %98 = stablehlo.broadcast_in_dim %97, dims = [] : (tensor<ui32>) -> tensor<2xui32>
    %99 = stablehlo.add %96, %98 : tensor<2xui32>
    %100 = stablehlo.add %94, %99 : tensor<2xui32>
    %101 = stablehlo.constant dense<13> : tensor<ui32>
    %102 = stablehlo.broadcast_in_dim %101, dims = [] : (tensor<ui32>) -> tensor<2xui32>
    %103 = stablehlo.shift_left %99, %102 : tensor<2xui32>
    %104 = stablehlo.constant dense<19> : tensor<ui32>
    %105 = stablehlo.broadcast_in_dim %104, dims = [] : (tensor<ui32>) -> tensor<2xui32>
    %106 = stablehlo.shift_right_logical %99, %105 : tensor<2xui32>
    %107 = stablehlo.or %103, %106 : tensor<2xui32>
    %108 = stablehlo.xor %100, %107 : tensor<2xui32>
    %109 = stablehlo.add %100, %108 : tensor<2xui32>
    %110 = stablehlo.constant dense<15> : tensor<ui32>
    %111 = stablehlo.broadcast_in_dim %110, dims = [] : (tensor<ui32>) -> tensor<2xui32>
    %112 = stablehlo.shift_left %108, %111 : tensor<2xui32>
    %113 = stablehlo.constant dense<17> : tensor<ui32>
    %114 = stablehlo.broadcast_in_dim %113, dims = [] : (tensor<ui32>) -> tensor<2xui32>
    %115 = stablehlo.shift_right_logical %108, %114 : tensor<2xui32>
    %116 = stablehlo.or %112, %115 : tensor<2xui32>
    %117 = stablehlo.xor %109, %116 : tensor<2xui32>
    %118 = stablehlo.add %109, %117 : tensor<2xui32>
    %119 = stablehlo.constant dense<26> : tensor<ui32>
    %120 = stablehlo.broadcast_in_dim %119, dims = [] : (tensor<ui32>) -> tensor<2xui32>
    %121 = stablehlo.shift_left %117, %120 : tensor<2xui32>
    %122 = stablehlo.constant dense<6> : tensor<ui32>
    %123 = stablehlo.broadcast_in_dim %122, dims = [] : (tensor<ui32>) -> tensor<2xui32>
    %124 = stablehlo.shift_right_logical %117, %123 : tensor<2xui32>
    %125 = stablehlo.or %121, %124 : tensor<2xui32>
    %126 = stablehlo.xor %118, %125 : tensor<2xui32>
    %127 = stablehlo.add %118, %126 : tensor<2xui32>
    %128 = stablehlo.constant dense<6> : tensor<ui32>
    %129 = stablehlo.broadcast_in_dim %128, dims = [] : (tensor<ui32>) -> tensor<2xui32>
    %130 = stablehlo.shift_left %126, %129 : tensor<2xui32>
    %131 = stablehlo.constant dense<26> : tensor<ui32>
    %132 = stablehlo.broadcast_in_dim %131, dims = [] : (tensor<ui32>) -> tensor<2xui32>
    %133 = stablehlo.shift_right_logical %126, %132 : tensor<2xui32>
    %134 = stablehlo.or %130, %133 : tensor<2xui32>
    %135 = stablehlo.xor %127, %134 : tensor<2xui32>
    %136 = stablehlo.broadcast_in_dim %2, dims = [] : (tensor<ui32>) -> tensor<2xui32>
    %137 = stablehlo.add %127, %136 : tensor<2xui32>
    %138 = stablehlo.broadcast_in_dim %4, dims = [] : (tensor<ui32>) -> tensor<2xui32>
    %139 = stablehlo.add %135, %138 : tensor<2xui32>
    %140 = stablehlo.constant dense<3> : tensor<ui32>
    %141 = stablehlo.broadcast_in_dim %140, dims = [] : (tensor<ui32>) -> tensor<2xui32>
    %142 = stablehlo.add %139, %141 : tensor<2xui32>
    %143 = stablehlo.add %137, %142 : tensor<2xui32>
    %144 = stablehlo.constant dense<17> : tensor<ui32>
    %145 = stablehlo.broadcast_in_dim %144, dims = [] : (tensor<ui32>) -> tensor<2xui32>
    %146 = stablehlo.shift_left %142, %145 : tensor<2xui32>
    %147 = stablehlo.constant dense<15> : tensor<ui32>
    %148 = stablehlo.broadcast_in_dim %147, dims = [] : (tensor<ui32>) -> tensor<2xui32>
    %149 = stablehlo.shift_right_logical %142, %148 : tensor<2xui32>
    %150 = stablehlo.or %146, %149 : tensor<2xui32>
    %151 = stablehlo.xor %143, %150 : tensor<2xui32>
    %152 = stablehlo.add %143, %151 : tensor<2xui32>
    %153 = stablehlo.constant dense<29> : tensor<ui32>
    %154 = stablehlo.broadcast_in_dim %153, dims = [] : (tensor<ui32>) -> tensor<2xui32>
    %155 = stablehlo.shift_left %151, %154 : tensor<2xui32>
    %156 = stablehlo.constant dense<3> : tensor<ui32>
    %157 = stablehlo.broadcast_in_dim %156, dims = [] : (tensor<ui32>) -> tensor<2xui32>
    %158 = stablehlo.shift_right_logical %151, %157 : tensor<2xui32>
    %159 = stablehlo.or %155, %158 : tensor<2xui32>
    %160 = stablehlo.xor %152, %159 : tensor<2xui32>
    %161 = stablehlo.add %152, %160 : tensor<2xui32>
    %162 = stablehlo.constant dense<16> : tensor<ui32>
    %163 = stablehlo.broadcast_in_dim %162, dims = [] : (tensor<ui32>) -> tensor<2xui32>
    %164 = stablehlo.shift_left %160, %163 : tensor<2xui32>
    %165 = stablehlo.constant dense<16> : tensor<ui32>
    %166 = stablehlo.broadcast_in_dim %165, dims = [] : (tensor<ui32>) -> tensor<2xui32>
    %167 = stablehlo.shift_right_logical %160, %166 : tensor<2xui32>
    %168 = stablehlo.or %164, %167 : tensor<2xui32>
    %169 = stablehlo.xor %161, %168 : tensor<2xui32>
    %170 = stablehlo.add %161, %169 : tensor<2xui32>
    %171 = stablehlo.constant dense<24> : tensor<ui32>
    %172 = stablehlo.broadcast_in_dim %171, dims = [] : (tensor<ui32>) -> tensor<2xui32>
    %173 = stablehlo.shift_left %169, %172 : tensor<2xui32>
    %174 = stablehlo.constant dense<8> : tensor<ui32>
    %175 = stablehlo.broadcast_in_dim %174, dims = [] : (tensor<ui32>) -> tensor<2xui32>
    %176 = stablehlo.shift_right_logical %169, %175 : tensor<2xui32>
    %177 = stablehlo.or %173, %176 : tensor<2xui32>
    %178 = stablehlo.xor %170, %177 : tensor<2xui32>
    %179 = stablehlo.broadcast_in_dim %4, dims = [] : (tensor<ui32>) -> tensor<2xui32>
    %180 = stablehlo.add %170, %179 : tensor<2xui32>
    %181 = stablehlo.broadcast_in_dim %9, dims = [] : (tensor<ui32>) -> tensor<2xui32>
    %182 = stablehlo.add %178, %181 : tensor<2xui32>
    %183 = stablehlo.constant dense<4> : tensor<ui32>
    %184 = stablehlo.broadcast_in_dim %183, dims = [] : (tensor<ui32>) -> tensor<2xui32>
    %185 = stablehlo.add %182, %184 : tensor<2xui32>
    %186 = stablehlo.add %180, %185 : tensor<2xui32>
    %187 = stablehlo.constant dense<13> : tensor<ui32>
    %188 = stablehlo.broadcast_in_dim %187, dims = [] : (tensor<ui32>) -> tensor<2xui32>
    %189 = stablehlo.shift_left %185, %188 : tensor<2xui32>
    %190 = stablehlo.constant dense<19> : tensor<ui32>
    %191 = stablehlo.broadcast_in_dim %190, dims = [] : (tensor<ui32>) -> tensor<2xui32>
    %192 = stablehlo.shift_right_logical %185, %191 : tensor<2xui32>
    %193 = stablehlo.or %189, %192 : tensor<2xui32>
    %194 = stablehlo.xor %186, %193 : tensor<2xui32>
    %195 = stablehlo.add %186, %194 : tensor<2xui32>
    %196 = stablehlo.constant dense<15> : tensor<ui32>
    %197 = stablehlo.broadcast_in_dim %196, dims = [] : (tensor<ui32>) -> tensor<2xui32>
    %198 = stablehlo.shift_left %194, %197 : tensor<2xui32>
    %199 = stablehlo.constant dense<17> : tensor<ui32>
    %200 = stablehlo.broadcast_in_dim %199, dims = [] : (tensor<ui32>) -> tensor<2xui32>
    %201 = stablehlo.shift_right_logical %194, %200 : tensor<2xui32>
    %202 = stablehlo.or %198, %201 : tensor<2xui32>
    %203 = stablehlo.xor %195, %202 : tensor<2xui32>
    %204 = stablehlo.add %195, %203 : tensor<2xui32>
    %205 = stablehlo.constant dense<26> : tensor<ui32>
    %206 = stablehlo.broadcast_in_dim %205, dims = [] : (tensor<ui32>) -> tensor<2xui32>
    %207 = stablehlo.shift_left %203, %206 : tensor<2xui32>
    %208 = stablehlo.constant dense<6> : tensor<ui32>
    %209 = stablehlo.broadcast_in_dim %208, dims = [] : (tensor<ui32>) -> tensor<2xui32>
    %210 = stablehlo.shift_right_logical %203, %209 : tensor<2xui32>
    %211 = stablehlo.or %207, %210 : tensor<2xui32>
    %212 = stablehlo.xor %204, %211 : tensor<2xui32>
    %213 = stablehlo.add %204, %212 : tensor<2xui32>
    %214 = stablehlo.constant dense<6> : tensor<ui32>
    %215 = stablehlo.broadcast_in_dim %214, dims = [] : (tensor<ui32>) -> tensor<2xui32>
    %216 = stablehlo.shift_left %212, %215 : tensor<2xui32>
    %217 = stablehlo.constant dense<26> : tensor<ui32>
    %218 = stablehlo.broadcast_in_dim %217, dims = [] : (tensor<ui32>) -> tensor<2xui32>
    %219 = stablehlo.shift_right_logical %212, %218 : tensor<2xui32>
    %220 = stablehlo.or %216, %219 : tensor<2xui32>
    %221 = stablehlo.xor %213, %220 : tensor<2xui32>
    %222 = stablehlo.broadcast_in_dim %9, dims = [] : (tensor<ui32>) -> tensor<2xui32>
    %223 = stablehlo.add %213, %222 : tensor<2xui32>
    %224 = stablehlo.broadcast_in_dim %2, dims = [] : (tensor<ui32>) -> tensor<2xui32>
    %225 = stablehlo.add %221, %224 : tensor<2xui32>
    %226 = stablehlo.constant dense<5> : tensor<ui32>
    %227 = stablehlo.broadcast_in_dim %226, dims = [] : (tensor<ui32>) -> tensor<2xui32>
    %228 = stablehlo.add %225, %227 : tensor<2xui32>
    %229 = stablehlo.concatenate %223, %228, dim = 0 : (tensor<2xui32>, tensor<2xui32>) -> tensor<4xui32>
    %230 = stablehlo.reshape %229 : (tensor<4xui32>) -> tensor<2x2xui32>
    %231 = "stablehlo.slice"(%230) {limit_indices = dense<[1, 2]> : tensor<2xi64>, start_indices = dense<0> : tensor<2xi64>, strides = dense<1> : tensor<2xi64>} : (tensor<2x2xui32>) -> tensor<1x2xui32>
    %232 = stablehlo.reshape %231 : (tensor<1x2xui32>) -> tensor<2xui32>
    %233 = "stablehlo.slice"(%230) {limit_indices = dense<2> : tensor<2xi64>, start_indices = dense<[1, 0]> : tensor<2xi64>, strides = dense<1> : tensor<2xi64>} : (tensor<2x2xui32>) -> tensor<1x2xui32>
    %234 = stablehlo.reshape %233 : (tensor<1x2xui32>) -> tensor<2xui32>
    %235 = stablehlo.iota dim = 0 : tensor<4xui32>
    %236 = "stablehlo.slice"(%234) {limit_indices = dense<1> : tensor<1xi64>, start_indices = dense<0> : tensor<1xi64>, strides = dense<1> : tensor<1xi64>} : (tensor<2xui32>) -> tensor<1xui32>
    %237 = stablehlo.reshape %236 : (tensor<1xui32>) -> tensor<ui32>
    %238 = "stablehlo.slice"(%234) {limit_indices = dense<2> : tensor<1xi64>, start_indices = dense<1> : tensor<1xi64>, strides = dense<1> : tensor<1xi64>} : (tensor<2xui32>) -> tensor<1xui32>
    %239 = stablehlo.reshape %238 : (tensor<1xui32>) -> tensor<ui32>
    %240 = "stablehlo.slice"(%235) {limit_indices = dense<2> : tensor<1xi64>, start_indices = dense<0> : tensor<1xi64>, strides = dense<1> : tensor<1xi64>} : (tensor<4xui32>) -> tensor<2xui32>
    %241 = "stablehlo.slice"(%235) {limit_indices = dense<4> : tensor<1xi64>, start_indices = dense<2> : tensor<1xi64>, strides = dense<1> : tensor<1xi64>} : (tensor<4xui32>) -> tensor<2xui32>
    %242 = stablehlo.xor %237, %239 : tensor<ui32>
    %243 = stablehlo.constant dense<466688986> : tensor<ui32>
    %244 = stablehlo.xor %242, %243 : tensor<ui32>
    %245 = stablehlo.broadcast_in_dim %237, dims = [] : (tensor<ui32>) -> tensor<2xui32>
    %246 = stablehlo.add %240, %245 : tensor<2xui32>
    %247 = stablehlo.broadcast_in_dim %239, dims = [] : (tensor<ui32>) -> tensor<2xui32>
    %248 = stablehlo.add %241, %247 : tensor<2xui32>
    %249 = stablehlo.add %246, %248 : tensor<2xui32>
    %250 = stablehlo.constant dense<13> : tensor<ui32>
    %251 = stablehlo.broadcast_in_dim %250, dims = [] : (tensor<ui32>) -> tensor<2xui32>
    %252 = stablehlo.shift_left %248, %251 : tensor<2xui32>
    %253 = stablehlo.constant dense<19> : tensor<ui32>
    %254 = stablehlo.broadcast_in_dim %253, dims = [] : (tensor<ui32>) -> tensor<2xui32>
    %255 = stablehlo.shift_right_logical %248, %254 : tensor<2xui32>
    %256 = stablehlo.or %252, %255 : tensor<2xui32>
    %257 = stablehlo.xor %249, %256 : tensor<2xui32>
    %258 = stablehlo.add %249, %257 : tensor<2xui32>
    %259 = stablehlo.constant dense<15> : tensor<ui32>
    %260 = stablehlo.broadcast_in_dim %259, dims = [] : (tensor<ui32>) -> tensor<2xui32>
    %261 = stablehlo.shift_left %257, %260 : tensor<2xui32>
    %262 = stablehlo.constant dense<17> : tensor<ui32>
    %263 = stablehlo.broadcast_in_dim %262, dims = [] : (tensor<ui32>) -> tensor<2xui32>
    %264 = stablehlo.shift_right_logical %257, %263 : tensor<2xui32>
    %265 = stablehlo.or %261, %264 : tensor<2xui32>
    %266 = stablehlo.xor %258, %265 : tensor<2xui32>
    %267 = stablehlo.add %258, %266 : tensor<2xui32>
    %268 = stablehlo.constant dense<26> : tensor<ui32>
    %269 = stablehlo.broadcast_in_dim %268, dims = [] : (tensor<ui32>) -> tensor<2xui32>
    %270 = stablehlo.shift_left %266, %269 : tensor<2xui32>
    %271 = stablehlo.constant dense<6> : tensor<ui32>
    %272 = stablehlo.broadcast_in_dim %271, dims = [] : (tensor<ui32>) -> tensor<2xui32>
    %273 = stablehlo.shift_right_logical %266, %272 : tensor<2xui32>
    %274 = stablehlo.or %270, %273 : tensor<2xui32>
    %275 = stablehlo.xor %267, %274 : tensor<2xui32>
    %276 = stablehlo.add %267, %275 : tensor<2xui32>
    %277 = stablehlo.constant dense<6> : tensor<ui32>
    %278 = stablehlo.broadcast_in_dim %277, dims = [] : (tensor<ui32>) -> tensor<2xui32>
    %279 = stablehlo.shift_left %275, %278 : tensor<2xui32>
    %280 = stablehlo.constant dense<26> : tensor<ui32>
    %281 = stablehlo.broadcast_in_dim %280, dims = [] : (tensor<ui32>) -> tensor<2xui32>
    %282 = stablehlo.shift_right_logical %275, %281 : tensor<2xui32>
    %283 = stablehlo.or %279, %282 : tensor<2xui32>
    %284 = stablehlo.xor %276, %283 : tensor<2xui32>
    %285 = stablehlo.broadcast_in_dim %239, dims = [] : (tensor<ui32>) -> tensor<2xui32>
    %286 = stablehlo.add %276, %285 : tensor<2xui32>
    %287 = stablehlo.broadcast_in_dim %244, dims = [] : (tensor<ui32>) -> tensor<2xui32>
    %288 = stablehlo.add %284, %287 : tensor<2xui32>
    %289 = stablehlo.constant dense<1> : tensor<ui32>
    %290 = stablehlo.broadcast_in_dim %289, dims = [] : (tensor<ui32>) -> tensor<2xui32>
    %291 = stablehlo.add %288, %290 : tensor<2xui32>
    %292 = stablehlo.add %286, %291 : tensor<2xui32>
    %293 = stablehlo.constant dense<17> : tensor<ui32>
    %294 = stablehlo.broadcast_in_dim %293, dims = [] : (tensor<ui32>) -> tensor<2xui32>
    %295 = stablehlo.shift_left %291, %294 : tensor<2xui32>
    %296 = stablehlo.constant dense<15> : tensor<ui32>
    %297 = stablehlo.broadcast_in_dim %296, dims = [] : (tensor<ui32>) -> tensor<2xui32>
    %298 = stablehlo.shift_right_logical %291, %297 : tensor<2xui32>
    %299 = stablehlo.or %295, %298 : tensor<2xui32>
    %300 = stablehlo.xor %292, %299 : tensor<2xui32>
    %301 = stablehlo.add %292, %300 : tensor<2xui32>
    %302 = stablehlo.constant dense<29> : tensor<ui32>
    %303 = stablehlo.broadcast_in_dim %302, dims = [] : (tensor<ui32>) -> tensor<2xui32>
    %304 = stablehlo.shift_left %300, %303 : tensor<2xui32>
    %305 = stablehlo.constant dense<3> : tensor<ui32>
    %306 = stablehlo.broadcast_in_dim %305, dims = [] : (tensor<ui32>) -> tensor<2xui32>
    %307 = stablehlo.shift_right_logical %300, %306 : tensor<2xui32>
    %308 = stablehlo.or %304, %307 : tensor<2xui32>
    %309 = stablehlo.xor %301, %308 : tensor<2xui32>
    %310 = stablehlo.add %301, %309 : tensor<2xui32>
    %311 = stablehlo.constant dense<16> : tensor<ui32>
    %312 = stablehlo.broadcast_in_dim %311, dims = [] : (tensor<ui32>) -> tensor<2xui32>
    %313 = stablehlo.shift_left %309, %312 : tensor<2xui32>
    %314 = stablehlo.constant dense<16> : tensor<ui32>
    %315 = stablehlo.broadcast_in_dim %314, dims = [] : (tensor<ui32>) -> tensor<2xui32>
    %316 = stablehlo.shift_right_logical %309, %315 : tensor<2xui32>
    %317 = stablehlo.or %313, %316 : tensor<2xui32>
    %318 = stablehlo.xor %310, %317 : tensor<2xui32>
    %319 = stablehlo.add %310, %318 : tensor<2xui32>
    %320 = stablehlo.constant dense<24> : tensor<ui32>
    %321 = stablehlo.broadcast_in_dim %320, dims = [] : (tensor<ui32>) -> tensor<2xui32>
    %322 = stablehlo.shift_left %318, %321 : tensor<2xui32>
    %323 = stablehlo.constant dense<8> : tensor<ui32>
    %324 = stablehlo.broadcast_in_dim %323, dims = [] : (tensor<ui32>) -> tensor<2xui32>
    %325 = stablehlo.shift_right_logical %318, %324 : tensor<2xui32>
    %326 = stablehlo.or %322, %325 : tensor<2xui32>
    %327 = stablehlo.xor %319, %326 : tensor<2xui32>
    %328 = stablehlo.broadcast_in_dim %244, dims = [] : (tensor<ui32>) -> tensor<2xui32>
    %329 = stablehlo.add %319, %328 : tensor<2xui32>
    %330 = stablehlo.broadcast_in_dim %237, dims = [] : (tensor<ui32>) -> tensor<2xui32>
    %331 = stablehlo.add %327, %330 : tensor<2xui32>
    %332 = stablehlo.constant dense<2> : tensor<ui32>
    %333 = stablehlo.broadcast_in_dim %332, dims = [] : (tensor<ui32>) -> tensor<2xui32>
    %334 = stablehlo.add %331, %333 : tensor<2xui32>
    %335 = stablehlo.add %329, %334 : tensor<2xui32>
    %336 = stablehlo.constant dense<13> : tensor<ui32>
    %337 = stablehlo.broadcast_in_dim %336, dims = [] : (tensor<ui32>) -> tensor<2xui32>
    %338 = stablehlo.shift_left %334, %337 : tensor<2xui32>
    %339 = stablehlo.constant dense<19> : tensor<ui32>
    %340 = stablehlo.broadcast_in_dim %339, dims = [] : (tensor<ui32>) -> tensor<2xui32>
    %341 = stablehlo.shift_right_logical %334, %340 : tensor<2xui32>
    %342 = stablehlo.or %338, %341 : tensor<2xui32>
    %343 = stablehlo.xor %335, %342 : tensor<2xui32>
    %344 = stablehlo.add %335, %343 : tensor<2xui32>
    %345 = stablehlo.constant dense<15> : tensor<ui32>
    %346 = stablehlo.broadcast_in_dim %345, dims = [] : (tensor<ui32>) -> tensor<2xui32>
    %347 = stablehlo.shift_left %343, %346 : tensor<2xui32>
    %348 = stablehlo.constant dense<17> : tensor<ui32>
    %349 = stablehlo.broadcast_in_dim %348, dims = [] : (tensor<ui32>) -> tensor<2xui32>
    %350 = stablehlo.shift_right_logical %343, %349 : tensor<2xui32>
    %351 = stablehlo.or %347, %350 : tensor<2xui32>
    %352 = stablehlo.xor %344, %351 : tensor<2xui32>
    %353 = stablehlo.add %344, %352 : tensor<2xui32>
    %354 = stablehlo.constant dense<26> : tensor<ui32>
    %355 = stablehlo.broadcast_in_dim %354, dims = [] : (tensor<ui32>) -> tensor<2xui32>
    %356 = stablehlo.shift_left %352, %355 : tensor<2xui32>
    %357 = stablehlo.constant dense<6> : tensor<ui32>
    %358 = stablehlo.broadcast_in_dim %357, dims = [] : (tensor<ui32>) -> tensor<2xui32>
    %359 = stablehlo.shift_right_logical %352, %358 : tensor<2xui32>
    %360 = stablehlo.or %356, %359 : tensor<2xui32>
    %361 = stablehlo.xor %353, %360 : tensor<2xui32>
    %362 = stablehlo.add %353, %361 : tensor<2xui32>
    %363 = stablehlo.constant dense<6> : tensor<ui32>
    %364 = stablehlo.broadcast_in_dim %363, dims = [] : (tensor<ui32>) -> tensor<2xui32>
    %365 = stablehlo.shift_left %361, %364 : tensor<2xui32>
    %366 = stablehlo.constant dense<26> : tensor<ui32>
    %367 = stablehlo.broadcast_in_dim %366, dims = [] : (tensor<ui32>) -> tensor<2xui32>
    %368 = stablehlo.shift_right_logical %361, %367 : tensor<2xui32>
    %369 = stablehlo.or %365, %368 : tensor<2xui32>
    %370 = stablehlo.xor %362, %369 : tensor<2xui32>
    %371 = stablehlo.broadcast_in_dim %237, dims = [] : (tensor<ui32>) -> tensor<2xui32>
    %372 = stablehlo.add %362, %371 : tensor<2xui32>
    %373 = stablehlo.broadcast_in_dim %239, dims = [] : (tensor<ui32>) -> tensor<2xui32>
    %374 = stablehlo.add %370, %373 : tensor<2xui32>
    %375 = stablehlo.constant dense<3> : tensor<ui32>
    %376 = stablehlo.broadcast_in_dim %375, dims = [] : (tensor<ui32>) -> tensor<2xui32>
    %377 = stablehlo.add %374, %376 : tensor<2xui32>
    %378 = stablehlo.add %372, %377 : tensor<2xui32>
    %379 = stablehlo.constant dense<17> : tensor<ui32>
    %380 = stablehlo.broadcast_in_dim %379, dims = [] : (tensor<ui32>) -> tensor<2xui32>
    %381 = stablehlo.shift_left %377, %380 : tensor<2xui32>
    %382 = stablehlo.constant dense<15> : tensor<ui32>
    %383 = stablehlo.broadcast_in_dim %382, dims = [] : (tensor<ui32>) -> tensor<2xui32>
    %384 = stablehlo.shift_right_logical %377, %383 : tensor<2xui32>
    %385 = stablehlo.or %381, %384 : tensor<2xui32>
    %386 = stablehlo.xor %378, %385 : tensor<2xui32>
    %387 = stablehlo.add %378, %386 : tensor<2xui32>
    %388 = stablehlo.constant dense<29> : tensor<ui32>
    %389 = stablehlo.broadcast_in_dim %388, dims = [] : (tensor<ui32>) -> tensor<2xui32>
    %390 = stablehlo.shift_left %386, %389 : tensor<2xui32>
    %391 = stablehlo.constant dense<3> : tensor<ui32>
    %392 = stablehlo.broadcast_in_dim %391, dims = [] : (tensor<ui32>) -> tensor<2xui32>
    %393 = stablehlo.shift_right_logical %386, %392 : tensor<2xui32>
    %394 = stablehlo.or %390, %393 : tensor<2xui32>
    %395 = stablehlo.xor %387, %394 : tensor<2xui32>
    %396 = stablehlo.add %387, %395 : tensor<2xui32>
    %397 = stablehlo.constant dense<16> : tensor<ui32>
    %398 = stablehlo.broadcast_in_dim %397, dims = [] : (tensor<ui32>) -> tensor<2xui32>
    %399 = stablehlo.shift_left %395, %398 : tensor<2xui32>
    %400 = stablehlo.constant dense<16> : tensor<ui32>
    %401 = stablehlo.broadcast_in_dim %400, dims = [] : (tensor<ui32>) -> tensor<2xui32>
    %402 = stablehlo.shift_right_logical %395, %401 : tensor<2xui32>
    %403 = stablehlo.or %399, %402 : tensor<2xui32>
    %404 = stablehlo.xor %396, %403 : tensor<2xui32>
    %405 = stablehlo.add %396, %404 : tensor<2xui32>
    %406 = stablehlo.constant dense<24> : tensor<ui32>
    %407 = stablehlo.broadcast_in_dim %406, dims = [] : (tensor<ui32>) -> tensor<2xui32>
    %408 = stablehlo.shift_left %404, %407 : tensor<2xui32>
    %409 = stablehlo.constant dense<8> : tensor<ui32>
    %410 = stablehlo.broadcast_in_dim %409, dims = [] : (tensor<ui32>) -> tensor<2xui32>
    %411 = stablehlo.shift_right_logical %404, %410 : tensor<2xui32>
    %412 = stablehlo.or %408, %411 : tensor<2xui32>
    %413 = stablehlo.xor %405, %412 : tensor<2xui32>
    %414 = stablehlo.broadcast_in_dim %239, dims = [] : (tensor<ui32>) -> tensor<2xui32>
    %415 = stablehlo.add %405, %414 : tensor<2xui32>
    %416 = stablehlo.broadcast_in_dim %244, dims = [] : (tensor<ui32>) -> tensor<2xui32>
    %417 = stablehlo.add %413, %416 : tensor<2xui32>
    %418 = stablehlo.constant dense<4> : tensor<ui32>
    %419 = stablehlo.broadcast_in_dim %418, dims = [] : (tensor<ui32>) -> tensor<2xui32>
    %420 = stablehlo.add %417, %419 : tensor<2xui32>
    %421 = stablehlo.add %415, %420 : tensor<2xui32>
    %422 = stablehlo.constant dense<13> : tensor<ui32>
    %423 = stablehlo.broadcast_in_dim %422, dims = [] : (tensor<ui32>) -> tensor<2xui32>
    %424 = stablehlo.shift_left %420, %423 : tensor<2xui32>
    %425 = stablehlo.constant dense<19> : tensor<ui32>
    %426 = stablehlo.broadcast_in_dim %425, dims = [] : (tensor<ui32>) -> tensor<2xui32>
    %427 = stablehlo.shift_right_logical %420, %426 : tensor<2xui32>
    %428 = stablehlo.or %424, %427 : tensor<2xui32>
    %429 = stablehlo.xor %421, %428 : tensor<2xui32>
    %430 = stablehlo.add %421, %429 : tensor<2xui32>
    %431 = stablehlo.constant dense<15> : tensor<ui32>
    %432 = stablehlo.broadcast_in_dim %431, dims = [] : (tensor<ui32>) -> tensor<2xui32>
    %433 = stablehlo.shift_left %429, %432 : tensor<2xui32>
    %434 = stablehlo.constant dense<17> : tensor<ui32>
    %435 = stablehlo.broadcast_in_dim %434, dims = [] : (tensor<ui32>) -> tensor<2xui32>
    %436 = stablehlo.shift_right_logical %429, %435 : tensor<2xui32>
    %437 = stablehlo.or %433, %436 : tensor<2xui32>
    %438 = stablehlo.xor %430, %437 : tensor<2xui32>
    %439 = stablehlo.add %430, %438 : tensor<2xui32>
    %440 = stablehlo.constant dense<26> : tensor<ui32>
    %441 = stablehlo.broadcast_in_dim %440, dims = [] : (tensor<ui32>) -> tensor<2xui32>
    %442 = stablehlo.shift_left %438, %441 : tensor<2xui32>
    %443 = stablehlo.constant dense<6> : tensor<ui32>
    %444 = stablehlo.broadcast_in_dim %443, dims = [] : (tensor<ui32>) -> tensor<2xui32>
    %445 = stablehlo.shift_right_logical %438, %444 : tensor<2xui32>
    %446 = stablehlo.or %442, %445 : tensor<2xui32>
    %447 = stablehlo.xor %439, %446 : tensor<2xui32>
    %448 = stablehlo.add %439, %447 : tensor<2xui32>
    %449 = stablehlo.constant dense<6> : tensor<ui32>
    %450 = stablehlo.broadcast_in_dim %449, dims = [] : (tensor<ui32>) -> tensor<2xui32>
    %451 = stablehlo.shift_left %447, %450 : tensor<2xui32>
    %452 = stablehlo.constant dense<26> : tensor<ui32>
    %453 = stablehlo.broadcast_in_dim %452, dims = [] : (tensor<ui32>) -> tensor<2xui32>
    %454 = stablehlo.shift_right_logical %447, %453 : tensor<2xui32>
    %455 = stablehlo.or %451, %454 : tensor<2xui32>
    %456 = stablehlo.xor %448, %455 : tensor<2xui32>
    %457 = stablehlo.broadcast_in_dim %244, dims = [] : (tensor<ui32>) -> tensor<2xui32>
    %458 = stablehlo.add %448, %457 : tensor<2xui32>
    %459 = stablehlo.broadcast_in_dim %237, dims = [] : (tensor<ui32>) -> tensor<2xui32>
    %460 = stablehlo.add %456, %459 : tensor<2xui32>
    %461 = stablehlo.constant dense<5> : tensor<ui32>
    %462 = stablehlo.broadcast_in_dim %461, dims = [] : (tensor<ui32>) -> tensor<2xui32>
    %463 = stablehlo.add %460, %462 : tensor<2xui32>
    %464 = stablehlo.concatenate %458, %463, dim = 0 : (tensor<2xui32>, tensor<2xui32>) -> tensor<4xui32>
    %465 = stablehlo.reshape %464 : (tensor<4xui32>) -> tensor<2x2xui32>
    %466 = "stablehlo.slice"(%465) {limit_indices = dense<[1, 2]> : tensor<2xi64>, start_indices = dense<0> : tensor<2xi64>, strides = dense<1> : tensor<2xi64>} : (tensor<2x2xui32>) -> tensor<1x2xui32>
    %467 = stablehlo.reshape %466 : (tensor<1x2xui32>) -> tensor<2xui32>
    %468 = "stablehlo.slice"(%465) {limit_indices = dense<2> : tensor<2xi64>, start_indices = dense<[1, 0]> : tensor<2xi64>, strides = dense<1> : tensor<2xi64>} : (tensor<2x2xui32>) -> tensor<1x2xui32>
    %469 = stablehlo.reshape %468 : (tensor<1x2xui32>) -> tensor<2xui32>
    %470 = stablehlo.constant dense<0.00219298247> : tensor<f32>
    %471 = stablehlo.sqrt %470 : tensor<f32>
    %472 = stablehlo.constant dense<0.879625678> : tensor<f32>
    %473 = stablehlo.divide %471, %472 : tensor<f32>
    %474 = stablehlo.constant dense<-2.000000e+00> : tensor<f32>
    %475 = stablehlo.constant dense<1.41421354> : tensor<f32>
    %476 = stablehlo.divide %474, %475 : tensor<f32>
    %477 = chlo.erf %476 : tensor<f32> -> tensor<f32>
    %478 = stablehlo.constant dense<2.000000e+00> : tensor<f32>
    %479 = stablehlo.constant dense<1.41421354> : tensor<f32>
    %480 = stablehlo.divide %478, %479 : tensor<f32>
    %481 = chlo.erf %480 : tensor<f32> -> tensor<f32>
    %482 = stablehlo.broadcast_in_dim %477, dims = [] : (tensor<f32>) -> tensor<1x1xf32>
    %483 = stablehlo.broadcast_in_dim %481, dims = [] : (tensor<f32>) -> tensor<1x1xf32>
    %484 = stablehlo.iota dim = 0 : tensor<100352xui32>
    %485 = "stablehlo.slice"(%467) {limit_indices = dense<1> : tensor<1xi64>, start_indices = dense<0> : tensor<1xi64>, strides = dense<1> : tensor<1xi64>} : (tensor<2xui32>) -> tensor<1xui32>
    %486 = stablehlo.reshape %485 : (tensor<1xui32>) -> tensor<ui32>
    %487 = "stablehlo.slice"(%467) {limit_indices = dense<2> : tensor<1xi64>, start_indices = dense<1> : tensor<1xi64>, strides = dense<1> : tensor<1xi64>} : (tensor<2xui32>) -> tensor<1xui32>
    %488 = stablehlo.reshape %487 : (tensor<1xui32>) -> tensor<ui32>
    %489 = "stablehlo.slice"(%484) {limit_indices = dense<50176> : tensor<1xi64>, start_indices = dense<0> : tensor<1xi64>, strides = dense<1> : tensor<1xi64>} : (tensor<100352xui32>) -> tensor<50176xui32>
    %490 = "stablehlo.slice"(%484) {limit_indices = dense<100352> : tensor<1xi64>, start_indices = dense<50176> : tensor<1xi64>, strides = dense<1> : tensor<1xi64>} : (tensor<100352xui32>) -> tensor<50176xui32>
    %491 = stablehlo.xor %486, %488 : tensor<ui32>
    %492 = stablehlo.constant dense<466688986> : tensor<ui32>
    %493 = stablehlo.xor %491, %492 : tensor<ui32>
    %494 = stablehlo.broadcast_in_dim %486, dims = [] : (tensor<ui32>) -> tensor<50176xui32>
    %495 = stablehlo.add %489, %494 : tensor<50176xui32>
    %496 = stablehlo.broadcast_in_dim %488, dims = [] : (tensor<ui32>) -> tensor<50176xui32>
    %497 = stablehlo.add %490, %496 : tensor<50176xui32>
    %498 = stablehlo.add %495, %497 : tensor<50176xui32>
    %499 = stablehlo.constant dense<13> : tensor<ui32>
    %500 = stablehlo.broadcast_in_dim %499, dims = [] : (tensor<ui32>) -> tensor<50176xui32>
    %501 = stablehlo.shift_left %497, %500 : tensor<50176xui32>
    %502 = stablehlo.constant dense<19> : tensor<ui32>
    %503 = stablehlo.broadcast_in_dim %502, dims = [] : (tensor<ui32>) -> tensor<50176xui32>
    %504 = stablehlo.shift_right_logical %497, %503 : tensor<50176xui32>
    %505 = stablehlo.or %501, %504 : tensor<50176xui32>
    %506 = stablehlo.xor %498, %505 : tensor<50176xui32>
    %507 = stablehlo.add %498, %506 : tensor<50176xui32>
    %508 = stablehlo.constant dense<15> : tensor<ui32>
    %509 = stablehlo.broadcast_in_dim %508, dims = [] : (tensor<ui32>) -> tensor<50176xui32>
    %510 = stablehlo.shift_left %506, %509 : tensor<50176xui32>
    %511 = stablehlo.constant dense<17> : tensor<ui32>
    %512 = stablehlo.broadcast_in_dim %511, dims = [] : (tensor<ui32>) -> tensor<50176xui32>
    %513 = stablehlo.shift_right_logical %506, %512 : tensor<50176xui32>
    %514 = stablehlo.or %510, %513 : tensor<50176xui32>
    %515 = stablehlo.xor %507, %514 : tensor<50176xui32>
    %516 = stablehlo.add %507, %515 : tensor<50176xui32>
    %517 = stablehlo.constant dense<26> : tensor<ui32>
    %518 = stablehlo.broadcast_in_dim %517, dims = [] : (tensor<ui32>) -> tensor<50176xui32>
    %519 = stablehlo.shift_left %515, %518 : tensor<50176xui32>
    %520 = stablehlo.constant dense<6> : tensor<ui32>
    %521 = stablehlo.broadcast_in_dim %520, dims = [] : (tensor<ui32>) -> tensor<50176xui32>
    %522 = stablehlo.shift_right_logical %515, %521 : tensor<50176xui32>
    %523 = stablehlo.or %519, %522 : tensor<50176xui32>
    %524 = stablehlo.xor %516, %523 : tensor<50176xui32>
    %525 = stablehlo.add %516, %524 : tensor<50176xui32>
    %526 = stablehlo.constant dense<6> : tensor<ui32>
    %527 = stablehlo.broadcast_in_dim %526, dims = [] : (tensor<ui32>) -> tensor<50176xui32>
    %528 = stablehlo.shift_left %524, %527 : tensor<50176xui32>
    %529 = stablehlo.constant dense<26> : tensor<ui32>
    %530 = stablehlo.broadcast_in_dim %529, dims = [] : (tensor<ui32>) -> tensor<50176xui32>
    %531 = stablehlo.shift_right_logical %524, %530 : tensor<50176xui32>
    %532 = stablehlo.or %528, %531 : tensor<50176xui32>
    %533 = stablehlo.xor %525, %532 : tensor<50176xui32>
    %534 = stablehlo.broadcast_in_dim %488, dims = [] : (tensor<ui32>) -> tensor<50176xui32>
    %535 = stablehlo.add %525, %534 : tensor<50176xui32>
    %536 = stablehlo.broadcast_in_dim %493, dims = [] : (tensor<ui32>) -> tensor<50176xui32>
    %537 = stablehlo.add %533, %536 : tensor<50176xui32>
    %538 = stablehlo.constant dense<1> : tensor<ui32>
    %539 = stablehlo.broadcast_in_dim %538, dims = [] : (tensor<ui32>) -> tensor<50176xui32>
    %540 = stablehlo.add %537, %539 : tensor<50176xui32>
    %541 = stablehlo.add %535, %540 : tensor<50176xui32>
    %542 = stablehlo.constant dense<17> : tensor<ui32>
    %543 = stablehlo.broadcast_in_dim %542, dims = [] : (tensor<ui32>) -> tensor<50176xui32>
    %544 = stablehlo.shift_left %540, %543 : tensor<50176xui32>
    %545 = stablehlo.constant dense<15> : tensor<ui32>
    %546 = stablehlo.broadcast_in_dim %545, dims = [] : (tensor<ui32>) -> tensor<50176xui32>
    %547 = stablehlo.shift_right_logical %540, %546 : tensor<50176xui32>
    %548 = stablehlo.or %544, %547 : tensor<50176xui32>
    %549 = stablehlo.xor %541, %548 : tensor<50176xui32>
    %550 = stablehlo.add %541, %549 : tensor<50176xui32>
    %551 = stablehlo.constant dense<29> : tensor<ui32>
    %552 = stablehlo.broadcast_in_dim %551, dims = [] : (tensor<ui32>) -> tensor<50176xui32>
    %553 = stablehlo.shift_left %549, %552 : tensor<50176xui32>
    %554 = stablehlo.constant dense<3> : tensor<ui32>
    %555 = stablehlo.broadcast_in_dim %554, dims = [] : (tensor<ui32>) -> tensor<50176xui32>
    %556 = stablehlo.shift_right_logical %549, %555 : tensor<50176xui32>
    %557 = stablehlo.or %553, %556 : tensor<50176xui32>
    %558 = stablehlo.xor %550, %557 : tensor<50176xui32>
    %559 = stablehlo.add %550, %558 : tensor<50176xui32>
    %560 = stablehlo.constant dense<16> : tensor<ui32>
    %561 = stablehlo.broadcast_in_dim %560, dims = [] : (tensor<ui32>) -> tensor<50176xui32>
    %562 = stablehlo.shift_left %558, %561 : tensor<50176xui32>
    %563 = stablehlo.constant dense<16> : tensor<ui32>
    %564 = stablehlo.broadcast_in_dim %563, dims = [] : (tensor<ui32>) -> tensor<50176xui32>
    %565 = stablehlo.shift_right_logical %558, %564 : tensor<50176xui32>
    %566 = stablehlo.or %562, %565 : tensor<50176xui32>
    %567 = stablehlo.xor %559, %566 : tensor<50176xui32>
    %568 = stablehlo.add %559, %567 : tensor<50176xui32>
    %569 = stablehlo.constant dense<24> : tensor<ui32>
    %570 = stablehlo.broadcast_in_dim %569, dims = [] : (tensor<ui32>) -> tensor<50176xui32>
    %571 = stablehlo.shift_left %567, %570 : tensor<50176xui32>
    %572 = stablehlo.constant dense<8> : tensor<ui32>
    %573 = stablehlo.broadcast_in_dim %572, dims = [] : (tensor<ui32>) -> tensor<50176xui32>
    %574 = stablehlo.shift_right_logical %567, %573 : tensor<50176xui32>
    %575 = stablehlo.or %571, %574 : tensor<50176xui32>
    %576 = stablehlo.xor %568, %575 : tensor<50176xui32>
    %577 = stablehlo.broadcast_in_dim %493, dims = [] : (tensor<ui32>) -> tensor<50176xui32>
    %578 = stablehlo.add %568, %577 : tensor<50176xui32>
    %579 = stablehlo.broadcast_in_dim %486, dims = [] : (tensor<ui32>) -> tensor<50176xui32>
    %580 = stablehlo.add %576, %579 : tensor<50176xui32>
    %581 = stablehlo.constant dense<2> : tensor<ui32>
    %582 = stablehlo.broadcast_in_dim %581, dims = [] : (tensor<ui32>) -> tensor<50176xui32>
    %583 = stablehlo.add %580, %582 : tensor<50176xui32>
    %584 = stablehlo.add %578, %583 : tensor<50176xui32>
    %585 = stablehlo.constant dense<13> : tensor<ui32>
    %586 = stablehlo.broadcast_in_dim %585, dims = [] : (tensor<ui32>) -> tensor<50176xui32>
    %587 = stablehlo.shift_left %583, %586 : tensor<50176xui32>
    %588 = stablehlo.constant dense<19> : tensor<ui32>
    %589 = stablehlo.broadcast_in_dim %588, dims = [] : (tensor<ui32>) -> tensor<50176xui32>
    %590 = stablehlo.shift_right_logical %583, %589 : tensor<50176xui32>
    %591 = stablehlo.or %587, %590 : tensor<50176xui32>
    %592 = stablehlo.xor %584, %591 : tensor<50176xui32>
    %593 = stablehlo.add %584, %592 : tensor<50176xui32>
    %594 = stablehlo.constant dense<15> : tensor<ui32>
    %595 = stablehlo.broadcast_in_dim %594, dims = [] : (tensor<ui32>) -> tensor<50176xui32>
    %596 = stablehlo.shift_left %592, %595 : tensor<50176xui32>
    %597 = stablehlo.constant dense<17> : tensor<ui32>
    %598 = stablehlo.broadcast_in_dim %597, dims = [] : (tensor<ui32>) -> tensor<50176xui32>
    %599 = stablehlo.shift_right_logical %592, %598 : tensor<50176xui32>
    %600 = stablehlo.or %596, %599 : tensor<50176xui32>
    %601 = stablehlo.xor %593, %600 : tensor<50176xui32>
    %602 = stablehlo.add %593, %601 : tensor<50176xui32>
    %603 = stablehlo.constant dense<26> : tensor<ui32>
    %604 = stablehlo.broadcast_in_dim %603, dims = [] : (tensor<ui32>) -> tensor<50176xui32>
    %605 = stablehlo.shift_left %601, %604 : tensor<50176xui32>
    %606 = stablehlo.constant dense<6> : tensor<ui32>
    %607 = stablehlo.broadcast_in_dim %606, dims = [] : (tensor<ui32>) -> tensor<50176xui32>
    %608 = stablehlo.shift_right_logical %601, %607 : tensor<50176xui32>
    %609 = stablehlo.or %605, %608 : tensor<50176xui32>
    %610 = stablehlo.xor %602, %609 : tensor<50176xui32>
    %611 = stablehlo.add %602, %610 : tensor<50176xui32>
    %612 = stablehlo.constant dense<6> : tensor<ui32>
    %613 = stablehlo.broadcast_in_dim %612, dims = [] : (tensor<ui32>) -> tensor<50176xui32>
    %614 = stablehlo.shift_left %610, %613 : tensor<50176xui32>
    %615 = stablehlo.constant dense<26> : tensor<ui32>
    %616 = stablehlo.broadcast_in_dim %615, dims = [] : (tensor<ui32>) -> tensor<50176xui32>
    %617 = stablehlo.shift_right_logical %610, %616 : tensor<50176xui32>
    %618 = stablehlo.or %614, %617 : tensor<50176xui32>
    %619 = stablehlo.xor %611, %618 : tensor<50176xui32>
    %620 = stablehlo.broadcast_in_dim %486, dims = [] : (tensor<ui32>) -> tensor<50176xui32>
    %621 = stablehlo.add %611, %620 : tensor<50176xui32>
    %622 = stablehlo.broadcast_in_dim %488, dims = [] : (tensor<ui32>) -> tensor<50176xui32>
    %623 = stablehlo.add %619, %622 : tensor<50176xui32>
    %624 = stablehlo.constant dense<3> : tensor<ui32>
    %625 = stablehlo.broadcast_in_dim %624, dims = [] : (tensor<ui32>) -> tensor<50176xui32>
    %626 = stablehlo.add %623, %625 : tensor<50176xui32>
    %627 = stablehlo.add %621, %626 : tensor<50176xui32>
    %628 = stablehlo.constant dense<17> : tensor<ui32>
    %629 = stablehlo.broadcast_in_dim %628, dims = [] : (tensor<ui32>) -> tensor<50176xui32>
    %630 = stablehlo.shift_left %626, %629 : tensor<50176xui32>
    %631 = stablehlo.constant dense<15> : tensor<ui32>
    %632 = stablehlo.broadcast_in_dim %631, dims = [] : (tensor<ui32>) -> tensor<50176xui32>
    %633 = stablehlo.shift_right_logical %626, %632 : tensor<50176xui32>
    %634 = stablehlo.or %630, %633 : tensor<50176xui32>
    %635 = stablehlo.xor %627, %634 : tensor<50176xui32>
    %636 = stablehlo.add %627, %635 : tensor<50176xui32>
    %637 = stablehlo.constant dense<29> : tensor<ui32>
    %638 = stablehlo.broadcast_in_dim %637, dims = [] : (tensor<ui32>) -> tensor<50176xui32>
    %639 = stablehlo.shift_left %635, %638 : tensor<50176xui32>
    %640 = stablehlo.constant dense<3> : tensor<ui32>
    %641 = stablehlo.broadcast_in_dim %640, dims = [] : (tensor<ui32>) -> tensor<50176xui32>
    %642 = stablehlo.shift_right_logical %635, %641 : tensor<50176xui32>
    %643 = stablehlo.or %639, %642 : tensor<50176xui32>
    %644 = stablehlo.xor %636, %643 : tensor<50176xui32>
    %645 = stablehlo.add %636, %644 : tensor<50176xui32>
    %646 = stablehlo.constant dense<16> : tensor<ui32>
    %647 = stablehlo.broadcast_in_dim %646, dims = [] : (tensor<ui32>) -> tensor<50176xui32>
    %648 = stablehlo.shift_left %644, %647 : tensor<50176xui32>
    %649 = stablehlo.constant dense<16> : tensor<ui32>
    %650 = stablehlo.broadcast_in_dim %649, dims = [] : (tensor<ui32>) -> tensor<50176xui32>
    %651 = stablehlo.shift_right_logical %644, %650 : tensor<50176xui32>
    %652 = stablehlo.or %648, %651 : tensor<50176xui32>
    %653 = stablehlo.xor %645, %652 : tensor<50176xui32>
    %654 = stablehlo.add %645, %653 : tensor<50176xui32>
    %655 = stablehlo.constant dense<24> : tensor<ui32>
    %656 = stablehlo.broadcast_in_dim %655, dims = [] : (tensor<ui32>) -> tensor<50176xui32>
    %657 = stablehlo.shift_left %653, %656 : tensor<50176xui32>
    %658 = stablehlo.constant dense<8> : tensor<ui32>
    %659 = stablehlo.broadcast_in_dim %658, dims = [] : (tensor<ui32>) -> tensor<50176xui32>
    %660 = stablehlo.shift_right_logical %653, %659 : tensor<50176xui32>
    %661 = stablehlo.or %657, %660 : tensor<50176xui32>
    %662 = stablehlo.xor %654, %661 : tensor<50176xui32>
    %663 = stablehlo.broadcast_in_dim %488, dims = [] : (tensor<ui32>) -> tensor<50176xui32>
    %664 = stablehlo.add %654, %663 : tensor<50176xui32>
    %665 = stablehlo.broadcast_in_dim %493, dims = [] : (tensor<ui32>) -> tensor<50176xui32>
    %666 = stablehlo.add %662, %665 : tensor<50176xui32>
    %667 = stablehlo.constant dense<4> : tensor<ui32>
    %668 = stablehlo.broadcast_in_dim %667, dims = [] : (tensor<ui32>) -> tensor<50176xui32>
    %669 = stablehlo.add %666, %668 : tensor<50176xui32>
    %670 = stablehlo.add %664, %669 : tensor<50176xui32>
    %671 = stablehlo.constant dense<13> : tensor<ui32>
    %672 = stablehlo.broadcast_in_dim %671, dims = [] : (tensor<ui32>) -> tensor<50176xui32>
    %673 = stablehlo.shift_left %669, %672 : tensor<50176xui32>
    %674 = stablehlo.constant dense<19> : tensor<ui32>
    %675 = stablehlo.broadcast_in_dim %674, dims = [] : (tensor<ui32>) -> tensor<50176xui32>
    %676 = stablehlo.shift_right_logical %669, %675 : tensor<50176xui32>
    %677 = stablehlo.or %673, %676 : tensor<50176xui32>
    %678 = stablehlo.xor %670, %677 : tensor<50176xui32>
    %679 = stablehlo.add %670, %678 : tensor<50176xui32>
    %680 = stablehlo.constant dense<15> : tensor<ui32>
    %681 = stablehlo.broadcast_in_dim %680, dims = [] : (tensor<ui32>) -> tensor<50176xui32>
    %682 = stablehlo.shift_left %678, %681 : tensor<50176xui32>
    %683 = stablehlo.constant dense<17> : tensor<ui32>
    %684 = stablehlo.broadcast_in_dim %683, dims = [] : (tensor<ui32>) -> tensor<50176xui32>
    %685 = stablehlo.shift_right_logical %678, %684 : tensor<50176xui32>
    %686 = stablehlo.or %682, %685 : tensor<50176xui32>
    %687 = stablehlo.xor %679, %686 : tensor<50176xui32>
    %688 = stablehlo.add %679, %687 : tensor<50176xui32>
    %689 = stablehlo.constant dense<26> : tensor<ui32>
    %690 = stablehlo.broadcast_in_dim %689, dims = [] : (tensor<ui32>) -> tensor<50176xui32>
    %691 = stablehlo.shift_left %687, %690 : tensor<50176xui32>
    %692 = stablehlo.constant dense<6> : tensor<ui32>
    %693 = stablehlo.broadcast_in_dim %692, dims = [] : (tensor<ui32>) -> tensor<50176xui32>
    %694 = stablehlo.shift_right_logical %687, %693 : tensor<50176xui32>
    %695 = stablehlo.or %691, %694 : tensor<50176xui32>
    %696 = stablehlo.xor %688, %695 : tensor<50176xui32>
    %697 = stablehlo.add %688, %696 : tensor<50176xui32>
    %698 = stablehlo.constant dense<6> : tensor<ui32>
    %699 = stablehlo.broadcast_in_dim %698, dims = [] : (tensor<ui32>) -> tensor<50176xui32>
    %700 = stablehlo.shift_left %696, %699 : tensor<50176xui32>
    %701 = stablehlo.constant dense<26> : tensor<ui32>
    %702 = stablehlo.broadcast_in_dim %701, dims = [] : (tensor<ui32>) -> tensor<50176xui32>
    %703 = stablehlo.shift_right_logical %696, %702 : tensor<50176xui32>
    %704 = stablehlo.or %700, %703 : tensor<50176xui32>
    %705 = stablehlo.xor %697, %704 : tensor<50176xui32>
    %706 = stablehlo.broadcast_in_dim %493, dims = [] : (tensor<ui32>) -> tensor<50176xui32>
    %707 = stablehlo.add %697, %706 : tensor<50176xui32>
    %708 = stablehlo.broadcast_in_dim %486, dims = [] : (tensor<ui32>) -> tensor<50176xui32>
    %709 = stablehlo.add %705, %708 : tensor<50176xui32>
    %710 = stablehlo.constant dense<5> : tensor<ui32>
    %711 = stablehlo.broadcast_in_dim %710, dims = [] : (tensor<ui32>) -> tensor<50176xui32>
    %712 = stablehlo.add %709, %711 : tensor<50176xui32>
    %713 = stablehlo.concatenate %707, %712, dim = 0 : (tensor<50176xui32>, tensor<50176xui32>) -> tensor<100352xui32>
    %714 = stablehlo.reshape %713 : (tensor<100352xui32>) -> tensor<784x128xui32>
    %715 = stablehlo.constant dense<9> : tensor<ui32>
    %716 = stablehlo.broadcast_in_dim %715, dims = [] : (tensor<ui32>) -> tensor<784x128xui32>
    %717 = stablehlo.shift_right_logical %714, %716 : tensor<784x128xui32>
    %718 = stablehlo.constant dense<1065353216> : tensor<ui32>
    %719 = stablehlo.broadcast_in_dim %718, dims = [] : (tensor<ui32>) -> tensor<784x128xui32>
    %720 = stablehlo.or %717, %719 : tensor<784x128xui32>
    %721 = stablehlo.bitcast_convert %720 : (tensor<784x128xui32>) -> tensor<784x128xf32>
    %722 = stablehlo.constant dense<1.000000e+00> : tensor<f32>
    %723 = stablehlo.broadcast_in_dim %722, dims = [] : (tensor<f32>) -> tensor<784x128xf32>
    %724 = stablehlo.subtract %721, %723 : tensor<784x128xf32>
    %725 = stablehlo.subtract %483, %482 : tensor<1x1xf32>
    %726 = stablehlo.broadcast_in_dim %725, dims = [0, 1] : (tensor<1x1xf32>) -> tensor<784x128xf32>
    %727 = stablehlo.multiply %724, %726 : tensor<784x128xf32>
    %728 = stablehlo.broadcast_in_dim %482, dims = [0, 1] : (tensor<1x1xf32>) -> tensor<784x128xf32>
    %729 = stablehlo.add %727, %728 : tensor<784x128xf32>
    %730 = stablehlo.broadcast_in_dim %482, dims = [0, 1] : (tensor<1x1xf32>) -> tensor<784x128xf32>
    %731 = stablehlo.maximum %730, %729 : tensor<784x128xf32>
    %732 = call @jit__initialize_optimizer$erf_inv(%731) : (tensor<784x128xf32>) -> tensor<784x128xf32>
    %733 = stablehlo.constant dense<1.41421354> : tensor<f32>
    %734 = stablehlo.broadcast_in_dim %733, dims = [] : (tensor<f32>) -> tensor<784x128xf32>
    %735 = stablehlo.multiply %734, %732 : tensor<784x128xf32>
    %736 = stablehlo.constant dense<-2.000000e+00> : tensor<f32>
    %737 = stablehlo.constant dense<0x7F800000> : tensor<f32>
    %738 = chlo.next_after %736, %737 : tensor<f32>, tensor<f32> -> tensor<f32>
    %739 = stablehlo.constant dense<2.000000e+00> : tensor<f32>
    %740 = stablehlo.constant dense<0xFF800000> : tensor<f32>
    %741 = chlo.next_after %739, %740 : tensor<f32>, tensor<f32> -> tensor<f32>
    %742 = call @jit__initialize_optimizer$clip(%735, %738, %741) : (tensor<784x128xf32>, tensor<f32>, tensor<f32>) -> tensor<784x128xf32>
    %743 = stablehlo.broadcast_in_dim %473, dims = [] : (tensor<f32>) -> tensor<784x128xf32>
    %744 = stablehlo.multiply %742, %743 : tensor<784x128xf32>
    %745 = stablehlo.constant dense<-0.99999994> : tensor<f32>
    %746 = stablehlo.broadcast_in_dim %745, dims = [] : (tensor<f32>) -> tensor<1xf32>
    %747 = stablehlo.constant dense<1.000000e+00> : tensor<f32>
    %748 = stablehlo.broadcast_in_dim %747, dims = [] : (tensor<f32>) -> tensor<1xf32>
    %749 = stablehlo.iota dim = 0 : tensor<128xui32>
    %750 = "stablehlo.slice"(%469) {limit_indices = dense<1> : tensor<1xi64>, start_indices = dense<0> : tensor<1xi64>, strides = dense<1> : tensor<1xi64>} : (tensor<2xui32>) -> tensor<1xui32>
    %751 = stablehlo.reshape %750 : (tensor<1xui32>) -> tensor<ui32>
    %752 = "stablehlo.slice"(%469) {limit_indices = dense<2> : tensor<1xi64>, start_indices = dense<1> : tensor<1xi64>, strides = dense<1> : tensor<1xi64>} : (tensor<2xui32>) -> tensor<1xui32>
    %753 = stablehlo.reshape %752 : (tensor<1xui32>) -> tensor<ui32>
    %754 = "stablehlo.slice"(%749) {limit_indices = dense<64> : tensor<1xi64>, start_indices = dense<0> : tensor<1xi64>, strides = dense<1> : tensor<1xi64>} : (tensor<128xui32>) -> tensor<64xui32>
    %755 = "stablehlo.slice"(%749) {limit_indices = dense<128> : tensor<1xi64>, start_indices = dense<64> : tensor<1xi64>, strides = dense<1> : tensor<1xi64>} : (tensor<128xui32>) -> tensor<64xui32>
    %756 = stablehlo.xor %751, %753 : tensor<ui32>
    %757 = stablehlo.constant dense<466688986> : tensor<ui32>
    %758 = stablehlo.xor %756, %757 : tensor<ui32>
    %759 = stablehlo.broadcast_in_dim %751, dims = [] : (tensor<ui32>) -> tensor<64xui32>
    %760 = stablehlo.add %754, %759 : tensor<64xui32>
    %761 = stablehlo.broadcast_in_dim %753, dims = [] : (tensor<ui32>) -> tensor<64xui32>
    %762 = stablehlo.add %755, %761 : tensor<64xui32>
    %763 = stablehlo.add %760, %762 : tensor<64xui32>
    %764 = stablehlo.constant dense<13> : tensor<ui32>
    %765 = stablehlo.broadcast_in_dim %764, dims = [] : (tensor<ui32>) -> tensor<64xui32>
    %766 = stablehlo.shift_left %762, %765 : tensor<64xui32>
    %767 = stablehlo.constant dense<19> : tensor<ui32>
    %768 = stablehlo.broadcast_in_dim %767, dims = [] : (tensor<ui32>) -> tensor<64xui32>
    %769 = stablehlo.shift_right_logical %762, %768 : tensor<64xui32>
    %770 = stablehlo.or %766, %769 : tensor<64xui32>
    %771 = stablehlo.xor %763, %770 : tensor<64xui32>
    %772 = stablehlo.add %763, %771 : tensor<64xui32>
    %773 = stablehlo.constant dense<15> : tensor<ui32>
    %774 = stablehlo.broadcast_in_dim %773, dims = [] : (tensor<ui32>) -> tensor<64xui32>
    %775 = stablehlo.shift_left %771, %774 : tensor<64xui32>
    %776 = stablehlo.constant dense<17> : tensor<ui32>
    %777 = stablehlo.broadcast_in_dim %776, dims = [] : (tensor<ui32>) -> tensor<64xui32>
    %778 = stablehlo.shift_right_logical %771, %777 : tensor<64xui32>
    %779 = stablehlo.or %775, %778 : tensor<64xui32>
    %780 = stablehlo.xor %772, %779 : tensor<64xui32>
    %781 = stablehlo.add %772, %780 : tensor<64xui32>
    %782 = stablehlo.constant dense<26> : tensor<ui32>
    %783 = stablehlo.broadcast_in_dim %782, dims = [] : (tensor<ui32>) -> tensor<64xui32>
    %784 = stablehlo.shift_left %780, %783 : tensor<64xui32>
    %785 = stablehlo.constant dense<6> : tensor<ui32>
    %786 = stablehlo.broadcast_in_dim %785, dims = [] : (tensor<ui32>) -> tensor<64xui32>
    %787 = stablehlo.shift_right_logical %780, %786 : tensor<64xui32>
    %788 = stablehlo.or %784, %787 : tensor<64xui32>
    %789 = stablehlo.xor %781, %788 : tensor<64xui32>
    %790 = stablehlo.add %781, %789 : tensor<64xui32>
    %791 = stablehlo.constant dense<6> : tensor<ui32>
    %792 = stablehlo.broadcast_in_dim %791, dims = [] : (tensor<ui32>) -> tensor<64xui32>
    %793 = stablehlo.shift_left %789, %792 : tensor<64xui32>
    %794 = stablehlo.constant dense<26> : tensor<ui32>
    %795 = stablehlo.broadcast_in_dim %794, dims = [] : (tensor<ui32>) -> tensor<64xui32>
    %796 = stablehlo.shift_right_logical %789, %795 : tensor<64xui32>
    %797 = stablehlo.or %793, %796 : tensor<64xui32>
    %798 = stablehlo.xor %790, %797 : tensor<64xui32>
    %799 = stablehlo.broadcast_in_dim %753, dims = [] : (tensor<ui32>) -> tensor<64xui32>
    %800 = stablehlo.add %790, %799 : tensor<64xui32>
    %801 = stablehlo.broadcast_in_dim %758, dims = [] : (tensor<ui32>) -> tensor<64xui32>
    %802 = stablehlo.add %798, %801 : tensor<64xui32>
    %803 = stablehlo.constant dense<1> : tensor<ui32>
    %804 = stablehlo.broadcast_in_dim %803, dims = [] : (tensor<ui32>) -> tensor<64xui32>
    %805 = stablehlo.add %802, %804 : tensor<64xui32>
    %806 = stablehlo.add %800, %805 : tensor<64xui32>
    %807 = stablehlo.constant dense<17> : tensor<ui32>
    %808 = stablehlo.broadcast_in_dim %807, dims = [] : (tensor<ui32>) -> tensor<64xui32>
    %809 = stablehlo.shift_left %805, %808 : tensor<64xui32>
    %810 = stablehlo.constant dense<15> : tensor<ui32>
    %811 = stablehlo.broadcast_in_dim %810, dims = [] : (tensor<ui32>) -> tensor<64xui32>
    %812 = stablehlo.shift_right_logical %805, %811 : tensor<64xui32>
    %813 = stablehlo.or %809, %812 : tensor<64xui32>
    %814 = stablehlo.xor %806, %813 : tensor<64xui32>
    %815 = stablehlo.add %806, %814 : tensor<64xui32>
    %816 = stablehlo.constant dense<29> : tensor<ui32>
    %817 = stablehlo.broadcast_in_dim %816, dims = [] : (tensor<ui32>) -> tensor<64xui32>
    %818 = stablehlo.shift_left %814, %817 : tensor<64xui32>
    %819 = stablehlo.constant dense<3> : tensor<ui32>
    %820 = stablehlo.broadcast_in_dim %819, dims = [] : (tensor<ui32>) -> tensor<64xui32>
    %821 = stablehlo.shift_right_logical %814, %820 : tensor<64xui32>
    %822 = stablehlo.or %818, %821 : tensor<64xui32>
    %823 = stablehlo.xor %815, %822 : tensor<64xui32>
    %824 = stablehlo.add %815, %823 : tensor<64xui32>
    %825 = stablehlo.constant dense<16> : tensor<ui32>
    %826 = stablehlo.broadcast_in_dim %825, dims = [] : (tensor<ui32>) -> tensor<64xui32>
    %827 = stablehlo.shift_left %823, %826 : tensor<64xui32>
    %828 = stablehlo.constant dense<16> : tensor<ui32>
    %829 = stablehlo.broadcast_in_dim %828, dims = [] : (tensor<ui32>) -> tensor<64xui32>
    %830 = stablehlo.shift_right_logical %823, %829 : tensor<64xui32>
    %831 = stablehlo.or %827, %830 : tensor<64xui32>
    %832 = stablehlo.xor %824, %831 : tensor<64xui32>
    %833 = stablehlo.add %824, %832 : tensor<64xui32>
    %834 = stablehlo.constant dense<24> : tensor<ui32>
    %835 = stablehlo.broadcast_in_dim %834, dims = [] : (tensor<ui32>) -> tensor<64xui32>
    %836 = stablehlo.shift_left %832, %835 : tensor<64xui32>
    %837 = stablehlo.constant dense<8> : tensor<ui32>
    %838 = stablehlo.broadcast_in_dim %837, dims = [] : (tensor<ui32>) -> tensor<64xui32>
    %839 = stablehlo.shift_right_logical %832, %838 : tensor<64xui32>
    %840 = stablehlo.or %836, %839 : tensor<64xui32>
    %841 = stablehlo.xor %833, %840 : tensor<64xui32>
    %842 = stablehlo.broadcast_in_dim %758, dims = [] : (tensor<ui32>) -> tensor<64xui32>
    %843 = stablehlo.add %833, %842 : tensor<64xui32>
    %844 = stablehlo.broadcast_in_dim %751, dims = [] : (tensor<ui32>) -> tensor<64xui32>
    %845 = stablehlo.add %841, %844 : tensor<64xui32>
    %846 = stablehlo.constant dense<2> : tensor<ui32>
    %847 = stablehlo.broadcast_in_dim %846, dims = [] : (tensor<ui32>) -> tensor<64xui32>
    %848 = stablehlo.add %845, %847 : tensor<64xui32>
    %849 = stablehlo.add %843, %848 : tensor<64xui32>
    %850 = stablehlo.constant dense<13> : tensor<ui32>
    %851 = stablehlo.broadcast_in_dim %850, dims = [] : (tensor<ui32>) -> tensor<64xui32>
    %852 = stablehlo.shift_left %848, %851 : tensor<64xui32>
    %853 = stablehlo.constant dense<19> : tensor<ui32>
    %854 = stablehlo.broadcast_in_dim %853, dims = [] : (tensor<ui32>) -> tensor<64xui32>
    %855 = stablehlo.shift_right_logical %848, %854 : tensor<64xui32>
    %856 = stablehlo.or %852, %855 : tensor<64xui32>
    %857 = stablehlo.xor %849, %856 : tensor<64xui32>
    %858 = stablehlo.add %849, %857 : tensor<64xui32>
    %859 = stablehlo.constant dense<15> : tensor<ui32>
    %860 = stablehlo.broadcast_in_dim %859, dims = [] : (tensor<ui32>) -> tensor<64xui32>
    %861 = stablehlo.shift_left %857, %860 : tensor<64xui32>
    %862 = stablehlo.constant dense<17> : tensor<ui32>
    %863 = stablehlo.broadcast_in_dim %862, dims = [] : (tensor<ui32>) -> tensor<64xui32>
    %864 = stablehlo.shift_right_logical %857, %863 : tensor<64xui32>
    %865 = stablehlo.or %861, %864 : tensor<64xui32>
    %866 = stablehlo.xor %858, %865 : tensor<64xui32>
    %867 = stablehlo.add %858, %866 : tensor<64xui32>
    %868 = stablehlo.constant dense<26> : tensor<ui32>
    %869 = stablehlo.broadcast_in_dim %868, dims = [] : (tensor<ui32>) -> tensor<64xui32>
    %870 = stablehlo.shift_left %866, %869 : tensor<64xui32>
    %871 = stablehlo.constant dense<6> : tensor<ui32>
    %872 = stablehlo.broadcast_in_dim %871, dims = [] : (tensor<ui32>) -> tensor<64xui32>
    %873 = stablehlo.shift_right_logical %866, %872 : tensor<64xui32>
    %874 = stablehlo.or %870, %873 : tensor<64xui32>
    %875 = stablehlo.xor %867, %874 : tensor<64xui32>
    %876 = stablehlo.add %867, %875 : tensor<64xui32>
    %877 = stablehlo.constant dense<6> : tensor<ui32>
    %878 = stablehlo.broadcast_in_dim %877, dims = [] : (tensor<ui32>) -> tensor<64xui32>
    %879 = stablehlo.shift_left %875, %878 : tensor<64xui32>
    %880 = stablehlo.constant dense<26> : tensor<ui32>
    %881 = stablehlo.broadcast_in_dim %880, dims = [] : (tensor<ui32>) -> tensor<64xui32>
    %882 = stablehlo.shift_right_logical %875, %881 : tensor<64xui32>
    %883 = stablehlo.or %879, %882 : tensor<64xui32>
    %884 = stablehlo.xor %876, %883 : tensor<64xui32>
    %885 = stablehlo.broadcast_in_dim %751, dims = [] : (tensor<ui32>) -> tensor<64xui32>
    %886 = stablehlo.add %876, %885 : tensor<64xui32>
    %887 = stablehlo.broadcast_in_dim %753, dims = [] : (tensor<ui32>) -> tensor<64xui32>
    %888 = stablehlo.add %884, %887 : tensor<64xui32>
    %889 = stablehlo.constant dense<3> : tensor<ui32>
    %890 = stablehlo.broadcast_in_dim %889, dims = [] : (tensor<ui32>) -> tensor<64xui32>
    %891 = stablehlo.add %888, %890 : tensor<64xui32>
    %892 = stablehlo.add %886, %891 : tensor<64xui32>
    %893 = stablehlo.constant dense<17> : tensor<ui32>
    %894 = stablehlo.broadcast_in_dim %893, dims = [] : (tensor<ui32>) -> tensor<64xui32>
    %895 = stablehlo.shift_left %891, %894 : tensor<64xui32>
    %896 = stablehlo.constant dense<15> : tensor<ui32>
    %897 = stablehlo.broadcast_in_dim %896, dims = [] : (tensor<ui32>) -> tensor<64xui32>
    %898 = stablehlo.shift_right_logical %891, %897 : tensor<64xui32>
    %899 = stablehlo.or %895, %898 : tensor<64xui32>
    %900 = stablehlo.xor %892, %899 : tensor<64xui32>
    %901 = stablehlo.add %892, %900 : tensor<64xui32>
    %902 = stablehlo.constant dense<29> : tensor<ui32>
    %903 = stablehlo.broadcast_in_dim %902, dims = [] : (tensor<ui32>) -> tensor<64xui32>
    %904 = stablehlo.shift_left %900, %903 : tensor<64xui32>
    %905 = stablehlo.constant dense<3> : tensor<ui32>
    %906 = stablehlo.broadcast_in_dim %905, dims = [] : (tensor<ui32>) -> tensor<64xui32>
    %907 = stablehlo.shift_right_logical %900, %906 : tensor<64xui32>
    %908 = stablehlo.or %904, %907 : tensor<64xui32>
    %909 = stablehlo.xor %901, %908 : tensor<64xui32>
    %910 = stablehlo.add %901, %909 : tensor<64xui32>
    %911 = stablehlo.constant dense<16> : tensor<ui32>
    %912 = stablehlo.broadcast_in_dim %911, dims = [] : (tensor<ui32>) -> tensor<64xui32>
    %913 = stablehlo.shift_left %909, %912 : tensor<64xui32>
    %914 = stablehlo.constant dense<16> : tensor<ui32>
    %915 = stablehlo.broadcast_in_dim %914, dims = [] : (tensor<ui32>) -> tensor<64xui32>
    %916 = stablehlo.shift_right_logical %909, %915 : tensor<64xui32>
    %917 = stablehlo.or %913, %916 : tensor<64xui32>
    %918 = stablehlo.xor %910, %917 : tensor<64xui32>
    %919 = stablehlo.add %910, %918 : tensor<64xui32>
    %920 = stablehlo.constant dense<24> : tensor<ui32>
    %921 = stablehlo.broadcast_in_dim %920, dims = [] : (tensor<ui32>) -> tensor<64xui32>
    %922 = stablehlo.shift_left %918, %921 : tensor<64xui32>
    %923 = stablehlo.constant dense<8> : tensor<ui32>
    %924 = stablehlo.broadcast_in_dim %923, dims = [] : (tensor<ui32>) -> tensor<64xui32>
    %925 = stablehlo.shift_right_logical %918, %924 : tensor<64xui32>
    %926 = stablehlo.or %922, %925 : tensor<64xui32>
    %927 = stablehlo.xor %919, %926 : tensor<64xui32>
    %928 = stablehlo.broadcast_in_dim %753, dims = [] : (tensor<ui32>) -> tensor<64xui32>
    %929 = stablehlo.add %919, %928 : tensor<64xui32>
    %930 = stablehlo.broadcast_in_dim %758, dims = [] : (tensor<ui32>) -> tensor<64xui32>
    %931 = stablehlo.add %927, %930 : tensor<64xui32>
    %932 = stablehlo.constant dense<4> : tensor<ui32>
    %933 = stablehlo.broadcast_in_dim %932, dims = [] : (tensor<ui32>) -> tensor<64xui32>
    %934 = stablehlo.add %931, %933 : tensor<64xui32>
    %935 = stablehlo.add %929, %934 : tensor<64xui32>
    %936 = stablehlo.constant dense<13> : tensor<ui32>
    %937 = stablehlo.broadcast_in_dim %936, dims = [] : (tensor<ui32>) -> tensor<64xui32>
    %938 = stablehlo.shift_left %934, %937 : tensor<64xui32>
    %939 = stablehlo.constant dense<19> : tensor<ui32>
    %940 = stablehlo.broadcast_in_dim %939, dims = [] : (tensor<ui32>) -> tensor<64xui32>
    %941 = stablehlo.shift_right_logical %934, %940 : tensor<64xui32>
    %942 = stablehlo.or %938, %941 : tensor<64xui32>
    %943 = stablehlo.xor %935, %942 : tensor<64xui32>
    %944 = stablehlo.add %935, %943 : tensor<64xui32>
    %945 = stablehlo.constant dense<15> : tensor<ui32>
    %946 = stablehlo.broadcast_in_dim %945, dims = [] : (tensor<ui32>) -> tensor<64xui32>
    %947 = stablehlo.shift_left %943, %946 : tensor<64xui32>
    %948 = stablehlo.constant dense<17> : tensor<ui32>
    %949 = stablehlo.broadcast_in_dim %948, dims = [] : (tensor<ui32>) -> tensor<64xui32>
    %950 = stablehlo.shift_right_logical %943, %949 : tensor<64xui32>
    %951 = stablehlo.or %947, %950 : tensor<64xui32>
    %952 = stablehlo.xor %944, %951 : tensor<64xui32>
    %953 = stablehlo.add %944, %952 : tensor<64xui32>
    %954 = stablehlo.constant dense<26> : tensor<ui32>
    %955 = stablehlo.broadcast_in_dim %954, dims = [] : (tensor<ui32>) -> tensor<64xui32>
    %956 = stablehlo.shift_left %952, %955 : tensor<64xui32>
    %957 = stablehlo.constant dense<6> : tensor<ui32>
    %958 = stablehlo.broadcast_in_dim %957, dims = [] : (tensor<ui32>) -> tensor<64xui32>
    %959 = stablehlo.shift_right_logical %952, %958 : tensor<64xui32>
    %960 = stablehlo.or %956, %959 : tensor<64xui32>
    %961 = stablehlo.xor %953, %960 : tensor<64xui32>
    %962 = stablehlo.add %953, %961 : tensor<64xui32>
    %963 = stablehlo.constant dense<6> : tensor<ui32>
    %964 = stablehlo.broadcast_in_dim %963, dims = [] : (tensor<ui32>) -> tensor<64xui32>
    %965 = stablehlo.shift_left %961, %964 : tensor<64xui32>
    %966 = stablehlo.constant dense<26> : tensor<ui32>
    %967 = stablehlo.broadcast_in_dim %966, dims = [] : (tensor<ui32>) -> tensor<64xui32>
    %968 = stablehlo.shift_right_logical %961, %967 : tensor<64xui32>
    %969 = stablehlo.or %965, %968 : tensor<64xui32>
    %970 = stablehlo.xor %962, %969 : tensor<64xui32>
    %971 = stablehlo.broadcast_in_dim %758, dims = [] : (tensor<ui32>) -> tensor<64xui32>
    %972 = stablehlo.add %962, %971 : tensor<64xui32>
    %973 = stablehlo.broadcast_in_dim %751, dims = [] : (tensor<ui32>) -> tensor<64xui32>
    %974 = stablehlo.add %970, %973 : tensor<64xui32>
    %975 = stablehlo.constant dense<5> : tensor<ui32>
    %976 = stablehlo.broadcast_in_dim %975, dims = [] : (tensor<ui32>) -> tensor<64xui32>
    %977 = stablehlo.add %974, %976 : tensor<64xui32>
    %978 = stablehlo.concatenate %972, %977, dim = 0 : (tensor<64xui32>, tensor<64xui32>) -> tensor<128xui32>
    %979 = stablehlo.constant dense<9> : tensor<ui32>
    %980 = stablehlo.broadcast_in_dim %979, dims = [] : (tensor<ui32>) -> tensor<128xui32>
    %981 = stablehlo.shift_right_logical %978, %980 : tensor<128xui32>
    %982 = stablehlo.constant dense<1065353216> : tensor<ui32>
    %983 = stablehlo.broadcast_in_dim %982, dims = [] : (tensor<ui32>) -> tensor<128xui32>
    %984 = stablehlo.or %981, %983 : tensor<128xui32>
    %985 = stablehlo.bitcast_convert %984 : (tensor<128xui32>) -> tensor<128xf32>
    %986 = stablehlo.constant dense<1.000000e+00> : tensor<f32>
    %987 = stablehlo.broadcast_in_dim %986, dims = [] : (tensor<f32>) -> tensor<128xf32>
    %988 = stablehlo.subtract %985, %987 : tensor<128xf32>
    %989 = stablehlo.subtract %748, %746 : tensor<1xf32>
    %990 = stablehlo.broadcast_in_dim %989, dims = [0] : (tensor<1xf32>) -> tensor<128xf32>
    %991 = stablehlo.multiply %988, %990 : tensor<128xf32>
    %992 = stablehlo.broadcast_in_dim %746, dims = [0] : (tensor<1xf32>) -> tensor<128xf32>
    %993 = stablehlo.add %991, %992 : tensor<128xf32>
    %994 = stablehlo.broadcast_in_dim %746, dims = [0] : (tensor<1xf32>) -> tensor<128xf32>
    %995 = stablehlo.maximum %994, %993 : tensor<128xf32>
    %996 = call @jit__initialize_optimizer$erf_inv_0(%995) : (tensor<128xf32>) -> tensor<128xf32>
    %997 = stablehlo.constant dense<1.41421354> : tensor<f32>
    %998 = stablehlo.broadcast_in_dim %997, dims = [] : (tensor<f32>) -> tensor<128xf32>
    %999 = stablehlo.multiply %998, %996 : tensor<128xf32>
    %1000 = stablehlo.constant dense<0.00999999977> : tensor<f32>
    %1001 = stablehlo.broadcast_in_dim %1000, dims = [] : (tensor<f32>) -> tensor<128xf32>
    %1002 = stablehlo.multiply %999, %1001 : tensor<128xf32>
    %1003 = stablehlo.iota dim = 0 : tensor<4xui32>
    %1004 = "stablehlo.slice"(%232) {limit_indices = dense<1> : tensor<1xi64>, start_indices = dense<0> : tensor<1xi64>, strides = dense<1> : tensor<1xi64>} : (tensor<2xui32>) -> tensor<1xui32>
    %1005 = stablehlo.reshape %1004 : (tensor<1xui32>) -> tensor<ui32>
    %1006 = "stablehlo.slice"(%232) {limit_indices = dense<2> : tensor<1xi64>, start_indices = dense<1> : tensor<1xi64>, strides = dense<1> : tensor<1xi64>} : (tensor<2xui32>) -> tensor<1xui32>
    %1007 = stablehlo.reshape %1006 : (tensor<1xui32>) -> tensor<ui32>
    %1008 = "stablehlo.slice"(%1003) {limit_indices = dense<2> : tensor<1xi64>, start_indices = dense<0> : tensor<1xi64>, strides = dense<1> : tensor<1xi64>} : (tensor<4xui32>) -> tensor<2xui32>
    %1009 = "stablehlo.slice"(%1003) {limit_indices = dense<4> : tensor<1xi64>, start_indices = dense<2> : tensor<1xi64>, strides = dense<1> : tensor<1xi64>} : (tensor<4xui32>) -> tensor<2xui32>
    %1010 = stablehlo.xor %1005, %1007 : tensor<ui32>
    %1011 = stablehlo.constant dense<466688986> : tensor<ui32>
    %1012 = stablehlo.xor %1010, %1011 : tensor<ui32>
    %1013 = stablehlo.broadcast_in_dim %1005, dims = [] : (tensor<ui32>) -> tensor<2xui32>
    %1014 = stablehlo.add %1008, %1013 : tensor<2xui32>
    %1015 = stablehlo.broadcast_in_dim %1007, dims = [] : (tensor<ui32>) -> tensor<2xui32>
    %1016 = stablehlo.add %1009, %1015 : tensor<2xui32>
    %1017 = stablehlo.add %1014, %1016 : tensor<2xui32>
    %1018 = stablehlo.constant dense<13> : tensor<ui32>
    %1019 = stablehlo.broadcast_in_dim %1018, dims = [] : (tensor<ui32>) -> tensor<2xui32>
    %1020 = stablehlo.shift_left %1016, %1019 : tensor<2xui32>
    %1021 = stablehlo.constant dense<19> : tensor<ui32>
    %1022 = stablehlo.broadcast_in_dim %1021, dims = [] : (tensor<ui32>) -> tensor<2xui32>
    %1023 = stablehlo.shift_right_logical %1016, %1022 : tensor<2xui32>
    %1024 = stablehlo.or %1020, %1023 : tensor<2xui32>
    %1025 = stablehlo.xor %1017, %1024 : tensor<2xui32>
    %1026 = stablehlo.add %1017, %1025 : tensor<2xui32>
    %1027 = stablehlo.constant dense<15> : tensor<ui32>
    %1028 = stablehlo.broadcast_in_dim %1027, dims = [] : (tensor<ui32>) -> tensor<2xui32>
    %1029 = stablehlo.shift_left %1025, %1028 : tensor<2xui32>
    %1030 = stablehlo.constant dense<17> : tensor<ui32>
    %1031 = stablehlo.broadcast_in_dim %1030, dims = [] : (tensor<ui32>) -> tensor<2xui32>
    %1032 = stablehlo.shift_right_logical %1025, %1031 : tensor<2xui32>
    %1033 = stablehlo.or %1029, %1032 : tensor<2xui32>
    %1034 = stablehlo.xor %1026, %1033 : tensor<2xui32>
    %1035 = stablehlo.add %1026, %1034 : tensor<2xui32>
    %1036 = stablehlo.constant dense<26> : tensor<ui32>
    %1037 = stablehlo.broadcast_in_dim %1036, dims = [] : (tensor<ui32>) -> tensor<2xui32>
    %1038 = stablehlo.shift_left %1034, %1037 : tensor<2xui32>
    %1039 = stablehlo.constant dense<6> : tensor<ui32>
    %1040 = stablehlo.broadcast_in_dim %1039, dims = [] : (tensor<ui32>) -> tensor<2xui32>
    %1041 = stablehlo.shift_right_logical %1034, %1040 : tensor<2xui32>
    %1042 = stablehlo.or %1038, %1041 : tensor<2xui32>
    %1043 = stablehlo.xor %1035, %1042 : tensor<2xui32>
    %1044 = stablehlo.add %1035, %1043 : tensor<2xui32>
    %1045 = stablehlo.constant dense<6> : tensor<ui32>
    %1046 = stablehlo.broadcast_in_dim %1045, dims = [] : (tensor<ui32>) -> tensor<2xui32>
    %1047 = stablehlo.shift_left %1043, %1046 : tensor<2xui32>
    %1048 = stablehlo.constant dense<26> : tensor<ui32>
    %1049 = stablehlo.broadcast_in_dim %1048, dims = [] : (tensor<ui32>) -> tensor<2xui32>
    %1050 = stablehlo.shift_right_logical %1043, %1049 : tensor<2xui32>
    %1051 = stablehlo.or %1047, %1050 : tensor<2xui32>
    %1052 = stablehlo.xor %1044, %1051 : tensor<2xui32>
    %1053 = stablehlo.broadcast_in_dim %1007, dims = [] : (tensor<ui32>) -> tensor<2xui32>
    %1054 = stablehlo.add %1044, %1053 : tensor<2xui32>
    %1055 = stablehlo.broadcast_in_dim %1012, dims = [] : (tensor<ui32>) -> tensor<2xui32>
    %1056 = stablehlo.add %1052, %1055 : tensor<2xui32>
    %1057 = stablehlo.constant dense<1> : tensor<ui32>
    %1058 = stablehlo.broadcast_in_dim %1057, dims = [] : (tensor<ui32>) -> tensor<2xui32>
    %1059 = stablehlo.add %1056, %1058 : tensor<2xui32>
    %1060 = stablehlo.add %1054, %1059 : tensor<2xui32>
    %1061 = stablehlo.constant dense<17> : tensor<ui32>
    %1062 = stablehlo.broadcast_in_dim %1061, dims = [] : (tensor<ui32>) -> tensor<2xui32>
    %1063 = stablehlo.shift_left %1059, %1062 : tensor<2xui32>
    %1064 = stablehlo.constant dense<15> : tensor<ui32>
    %1065 = stablehlo.broadcast_in_dim %1064, dims = [] : (tensor<ui32>) -> tensor<2xui32>
    %1066 = stablehlo.shift_right_logical %1059, %1065 : tensor<2xui32>
    %1067 = stablehlo.or %1063, %1066 : tensor<2xui32>
    %1068 = stablehlo.xor %1060, %1067 : tensor<2xui32>
    %1069 = stablehlo.add %1060, %1068 : tensor<2xui32>
    %1070 = stablehlo.constant dense<29> : tensor<ui32>
    %1071 = stablehlo.broadcast_in_dim %1070, dims = [] : (tensor<ui32>) -> tensor<2xui32>
    %1072 = stablehlo.shift_left %1068, %1071 : tensor<2xui32>
    %1073 = stablehlo.constant dense<3> : tensor<ui32>
    %1074 = stablehlo.broadcast_in_dim %1073, dims = [] : (tensor<ui32>) -> tensor<2xui32>
    %1075 = stablehlo.shift_right_logical %1068, %1074 : tensor<2xui32>
    %1076 = stablehlo.or %1072, %1075 : tensor<2xui32>
    %1077 = stablehlo.xor %1069, %1076 : tensor<2xui32>
    %1078 = stablehlo.add %1069, %1077 : tensor<2xui32>
    %1079 = stablehlo.constant dense<16> : tensor<ui32>
    %1080 = stablehlo.broadcast_in_dim %1079, dims = [] : (tensor<ui32>) -> tensor<2xui32>
    %1081 = stablehlo.shift_left %1077, %1080 : tensor<2xui32>
    %1082 = stablehlo.constant dense<16> : tensor<ui32>
    %1083 = stablehlo.broadcast_in_dim %1082, dims = [] : (tensor<ui32>) -> tensor<2xui32>
    %1084 = stablehlo.shift_right_logical %1077, %1083 : tensor<2xui32>
    %1085 = stablehlo.or %1081, %1084 : tensor<2xui32>
    %1086 = stablehlo.xor %1078, %1085 : tensor<2xui32>
    %1087 = stablehlo.add %1078, %1086 : tensor<2xui32>
    %1088 = stablehlo.constant dense<24> : tensor<ui32>
    %1089 = stablehlo.broadcast_in_dim %1088, dims = [] : (tensor<ui32>) -> tensor<2xui32>
    %1090 = stablehlo.shift_left %1086, %1089 : tensor<2xui32>
    %1091 = stablehlo.constant dense<8> : tensor<ui32>
    %1092 = stablehlo.broadcast_in_dim %1091, dims = [] : (tensor<ui32>) -> tensor<2xui32>
    %1093 = stablehlo.shift_right_logical %1086, %1092 : tensor<2xui32>
    %1094 = stablehlo.or %1090, %1093 : tensor<2xui32>
    %1095 = stablehlo.xor %1087, %1094 : tensor<2xui32>
    %1096 = stablehlo.broadcast_in_dim %1012, dims = [] : (tensor<ui32>) -> tensor<2xui32>
    %1097 = stablehlo.add %1087, %1096 : tensor<2xui32>
    %1098 = stablehlo.broadcast_in_dim %1005, dims = [] : (tensor<ui32>) -> tensor<2xui32>
    %1099 = stablehlo.add %1095, %1098 : tensor<2xui32>
    %1100 = stablehlo.constant dense<2> : tensor<ui32>
    %1101 = stablehlo.broadcast_in_dim %1100, dims = [] : (tensor<ui32>) -> tensor<2xui32>
    %1102 = stablehlo.add %1099, %1101 : tensor<2xui32>
    %1103 = stablehlo.add %1097, %1102 : tensor<2xui32>
    %1104 = stablehlo.constant dense<13> : tensor<ui32>
    %1105 = stablehlo.broadcast_in_dim %1104, dims = [] : (tensor<ui32>) -> tensor<2xui32>
    %1106 = stablehlo.shift_left %1102, %1105 : tensor<2xui32>
    %1107 = stablehlo.constant dense<19> : tensor<ui32>
    %1108 = stablehlo.broadcast_in_dim %1107, dims = [] : (tensor<ui32>) -> tensor<2xui32>
    %1109 = stablehlo.shift_right_logical %1102, %1108 : tensor<2xui32>
    %1110 = stablehlo.or %1106, %1109 : tensor<2xui32>
    %1111 = stablehlo.xor %1103, %1110 : tensor<2xui32>
    %1112 = stablehlo.add %1103, %1111 : tensor<2xui32>
    %1113 = stablehlo.constant dense<15> : tensor<ui32>
    %1114 = stablehlo.broadcast_in_dim %1113, dims = [] : (tensor<ui32>) -> tensor<2xui32>
    %1115 = stablehlo.shift_left %1111, %1114 : tensor<2xui32>
    %1116 = stablehlo.constant dense<17> : tensor<ui32>
    %1117 = stablehlo.broadcast_in_dim %1116, dims = [] : (tensor<ui32>) -> tensor<2xui32>
    %1118 = stablehlo.shift_right_logical %1111, %1117 : tensor<2xui32>
    %1119 = stablehlo.or %1115, %1118 : tensor<2xui32>
    %1120 = stablehlo.xor %1112, %1119 : tensor<2xui32>
    %1121 = stablehlo.add %1112, %1120 : tensor<2xui32>
    %1122 = stablehlo.constant dense<26> : tensor<ui32>
    %1123 = stablehlo.broadcast_in_dim %1122, dims = [] : (tensor<ui32>) -> tensor<2xui32>
    %1124 = stablehlo.shift_left %1120, %1123 : tensor<2xui32>
    %1125 = stablehlo.constant dense<6> : tensor<ui32>
    %1126 = stablehlo.broadcast_in_dim %1125, dims = [] : (tensor<ui32>) -> tensor<2xui32>
    %1127 = stablehlo.shift_right_logical %1120, %1126 : tensor<2xui32>
    %1128 = stablehlo.or %1124, %1127 : tensor<2xui32>
    %1129 = stablehlo.xor %1121, %1128 : tensor<2xui32>
    %1130 = stablehlo.add %1121, %1129 : tensor<2xui32>
    %1131 = stablehlo.constant dense<6> : tensor<ui32>
    %1132 = stablehlo.broadcast_in_dim %1131, dims = [] : (tensor<ui32>) -> tensor<2xui32>
    %1133 = stablehlo.shift_left %1129, %1132 : tensor<2xui32>
    %1134 = stablehlo.constant dense<26> : tensor<ui32>
    %1135 = stablehlo.broadcast_in_dim %1134, dims = [] : (tensor<ui32>) -> tensor<2xui32>
    %1136 = stablehlo.shift_right_logical %1129, %1135 : tensor<2xui32>
    %1137 = stablehlo.or %1133, %1136 : tensor<2xui32>
    %1138 = stablehlo.xor %1130, %1137 : tensor<2xui32>
    %1139 = stablehlo.broadcast_in_dim %1005, dims = [] : (tensor<ui32>) -> tensor<2xui32>
    %1140 = stablehlo.add %1130, %1139 : tensor<2xui32>
    %1141 = stablehlo.broadcast_in_dim %1007, dims = [] : (tensor<ui32>) -> tensor<2xui32>
    %1142 = stablehlo.add %1138, %1141 : tensor<2xui32>
    %1143 = stablehlo.constant dense<3> : tensor<ui32>
    %1144 = stablehlo.broadcast_in_dim %1143, dims = [] : (tensor<ui32>) -> tensor<2xui32>
    %1145 = stablehlo.add %1142, %1144 : tensor<2xui32>
    %1146 = stablehlo.add %1140, %1145 : tensor<2xui32>
    %1147 = stablehlo.constant dense<17> : tensor<ui32>
    %1148 = stablehlo.broadcast_in_dim %1147, dims = [] : (tensor<ui32>) -> tensor<2xui32>
    %1149 = stablehlo.shift_left %1145, %1148 : tensor<2xui32>
    %1150 = stablehlo.constant dense<15> : tensor<ui32>
    %1151 = stablehlo.broadcast_in_dim %1150, dims = [] : (tensor<ui32>) -> tensor<2xui32>
    %1152 = stablehlo.shift_right_logical %1145, %1151 : tensor<2xui32>
    %1153 = stablehlo.or %1149, %1152 : tensor<2xui32>
    %1154 = stablehlo.xor %1146, %1153 : tensor<2xui32>
    %1155 = stablehlo.add %1146, %1154 : tensor<2xui32>
    %1156 = stablehlo.constant dense<29> : tensor<ui32>
    %1157 = stablehlo.broadcast_in_dim %1156, dims = [] : (tensor<ui32>) -> tensor<2xui32>
    %1158 = stablehlo.shift_left %1154, %1157 : tensor<2xui32>
    %1159 = stablehlo.constant dense<3> : tensor<ui32>
    %1160 = stablehlo.broadcast_in_dim %1159, dims = [] : (tensor<ui32>) -> tensor<2xui32>
    %1161 = stablehlo.shift_right_logical %1154, %1160 : tensor<2xui32>
    %1162 = stablehlo.or %1158, %1161 : tensor<2xui32>
    %1163 = stablehlo.xor %1155, %1162 : tensor<2xui32>
    %1164 = stablehlo.add %1155, %1163 : tensor<2xui32>
    %1165 = stablehlo.constant dense<16> : tensor<ui32>
    %1166 = stablehlo.broadcast_in_dim %1165, dims = [] : (tensor<ui32>) -> tensor<2xui32>
    %1167 = stablehlo.shift_left %1163, %1166 : tensor<2xui32>
    %1168 = stablehlo.constant dense<16> : tensor<ui32>
    %1169 = stablehlo.broadcast_in_dim %1168, dims = [] : (tensor<ui32>) -> tensor<2xui32>
    %1170 = stablehlo.shift_right_logical %1163, %1169 : tensor<2xui32>
    %1171 = stablehlo.or %1167, %1170 : tensor<2xui32>
    %1172 = stablehlo.xor %1164, %1171 : tensor<2xui32>
    %1173 = stablehlo.add %1164, %1172 : tensor<2xui32>
    %1174 = stablehlo.constant dense<24> : tensor<ui32>
    %1175 = stablehlo.broadcast_in_dim %1174, dims = [] : (tensor<ui32>) -> tensor<2xui32>
    %1176 = stablehlo.shift_left %1172, %1175 : tensor<2xui32>
    %1177 = stablehlo.constant dense<8> : tensor<ui32>
    %1178 = stablehlo.broadcast_in_dim %1177, dims = [] : (tensor<ui32>) -> tensor<2xui32>
    %1179 = stablehlo.shift_right_logical %1172, %1178 : tensor<2xui32>
    %1180 = stablehlo.or %1176, %1179 : tensor<2xui32>
    %1181 = stablehlo.xor %1173, %1180 : tensor<2xui32>
    %1182 = stablehlo.broadcast_in_dim %1007, dims = [] : (tensor<ui32>) -> tensor<2xui32>
    %1183 = stablehlo.add %1173, %1182 : tensor<2xui32>
    %1184 = stablehlo.broadcast_in_dim %1012, dims = [] : (tensor<ui32>) -> tensor<2xui32>
    %1185 = stablehlo.add %1181, %1184 : tensor<2xui32>
    %1186 = stablehlo.constant dense<4> : tensor<ui32>
    %1187 = stablehlo.broadcast_in_dim %1186, dims = [] : (tensor<ui32>) -> tensor<2xui32>
    %1188 = stablehlo.add %1185, %1187 : tensor<2xui32>
    %1189 = stablehlo.add %1183, %1188 : tensor<2xui32>
    %1190 = stablehlo.constant dense<13> : tensor<ui32>
    %1191 = stablehlo.broadcast_in_dim %1190, dims = [] : (tensor<ui32>) -> tensor<2xui32>
    %1192 = stablehlo.shift_left %1188, %1191 : tensor<2xui32>
    %1193 = stablehlo.constant dense<19> : tensor<ui32>
    %1194 = stablehlo.broadcast_in_dim %1193, dims = [] : (tensor<ui32>) -> tensor<2xui32>
    %1195 = stablehlo.shift_right_logical %1188, %1194 : tensor<2xui32>
    %1196 = stablehlo.or %1192, %1195 : tensor<2xui32>
    %1197 = stablehlo.xor %1189, %1196 : tensor<2xui32>
    %1198 = stablehlo.add %1189, %1197 : tensor<2xui32>
    %1199 = stablehlo.constant dense<15> : tensor<ui32>
    %1200 = stablehlo.broadcast_in_dim %1199, dims = [] : (tensor<ui32>) -> tensor<2xui32>
    %1201 = stablehlo.shift_left %1197, %1200 : tensor<2xui32>
    %1202 = stablehlo.constant dense<17> : tensor<ui32>
    %1203 = stablehlo.broadcast_in_dim %1202, dims = [] : (tensor<ui32>) -> tensor<2xui32>
    %1204 = stablehlo.shift_right_logical %1197, %1203 : tensor<2xui32>
    %1205 = stablehlo.or %1201, %1204 : tensor<2xui32>
    %1206 = stablehlo.xor %1198, %1205 : tensor<2xui32>
    %1207 = stablehlo.add %1198, %1206 : tensor<2xui32>
    %1208 = stablehlo.constant dense<26> : tensor<ui32>
    %1209 = stablehlo.broadcast_in_dim %1208, dims = [] : (tensor<ui32>) -> tensor<2xui32>
    %1210 = stablehlo.shift_left %1206, %1209 : tensor<2xui32>
    %1211 = stablehlo.constant dense<6> : tensor<ui32>
    %1212 = stablehlo.broadcast_in_dim %1211, dims = [] : (tensor<ui32>) -> tensor<2xui32>
    %1213 = stablehlo.shift_right_logical %1206, %1212 : tensor<2xui32>
    %1214 = stablehlo.or %1210, %1213 : tensor<2xui32>
    %1215 = stablehlo.xor %1207, %1214 : tensor<2xui32>
    %1216 = stablehlo.add %1207, %1215 : tensor<2xui32>
    %1217 = stablehlo.constant dense<6> : tensor<ui32>
    %1218 = stablehlo.broadcast_in_dim %1217, dims = [] : (tensor<ui32>) -> tensor<2xui32>
    %1219 = stablehlo.shift_left %1215, %1218 : tensor<2xui32>
    %1220 = stablehlo.constant dense<26> : tensor<ui32>
    %1221 = stablehlo.broadcast_in_dim %1220, dims = [] : (tensor<ui32>) -> tensor<2xui32>
    %1222 = stablehlo.shift_right_logical %1215, %1221 : tensor<2xui32>
    %1223 = stablehlo.or %1219, %1222 : tensor<2xui32>
    %1224 = stablehlo.xor %1216, %1223 : tensor<2xui32>
    %1225 = stablehlo.broadcast_in_dim %1012, dims = [] : (tensor<ui32>) -> tensor<2xui32>
    %1226 = stablehlo.add %1216, %1225 : tensor<2xui32>
    %1227 = stablehlo.broadcast_in_dim %1005, dims = [] : (tensor<ui32>) -> tensor<2xui32>
    %1228 = stablehlo.add %1224, %1227 : tensor<2xui32>
    %1229 = stablehlo.constant dense<5> : tensor<ui32>
    %1230 = stablehlo.broadcast_in_dim %1229, dims = [] : (tensor<ui32>) -> tensor<2xui32>
    %1231 = stablehlo.add %1228, %1230 : tensor<2xui32>
    %1232 = stablehlo.concatenate %1226, %1231, dim = 0 : (tensor<2xui32>, tensor<2xui32>) -> tensor<4xui32>
    %1233 = stablehlo.reshape %1232 : (tensor<4xui32>) -> tensor<2x2xui32>
    %1234 = "stablehlo.slice"(%1233) {limit_indices = dense<[1, 2]> : tensor<2xi64>, start_indices = dense<0> : tensor<2xi64>, strides = dense<1> : tensor<2xi64>} : (tensor<2x2xui32>) -> tensor<1x2xui32>
    %1235 = stablehlo.reshape %1234 : (tensor<1x2xui32>) -> tensor<2xui32>
    %1236 = stablehlo.iota dim = 0 : tensor<4xui32>
    %1237 = "stablehlo.slice"(%1235) {limit_indices = dense<1> : tensor<1xi64>, start_indices = dense<0> : tensor<1xi64>, strides = dense<1> : tensor<1xi64>} : (tensor<2xui32>) -> tensor<1xui32>
    %1238 = stablehlo.reshape %1237 : (tensor<1xui32>) -> tensor<ui32>
    %1239 = "stablehlo.slice"(%1235) {limit_indices = dense<2> : tensor<1xi64>, start_indices = dense<1> : tensor<1xi64>, strides = dense<1> : tensor<1xi64>} : (tensor<2xui32>) -> tensor<1xui32>
    %1240 = stablehlo.reshape %1239 : (tensor<1xui32>) -> tensor<ui32>
    %1241 = "stablehlo.slice"(%1236) {limit_indices = dense<2> : tensor<1xi64>, start_indices = dense<0> : tensor<1xi64>, strides = dense<1> : tensor<1xi64>} : (tensor<4xui32>) -> tensor<2xui32>
    %1242 = "stablehlo.slice"(%1236) {limit_indices = dense<4> : tensor<1xi64>, start_indices = dense<2> : tensor<1xi64>, strides = dense<1> : tensor<1xi64>} : (tensor<4xui32>) -> tensor<2xui32>
    %1243 = stablehlo.xor %1238, %1240 : tensor<ui32>
    %1244 = stablehlo.constant dense<466688986> : tensor<ui32>
    %1245 = stablehlo.xor %1243, %1244 : tensor<ui32>
    %1246 = stablehlo.broadcast_in_dim %1238, dims = [] : (tensor<ui32>) -> tensor<2xui32>
    %1247 = stablehlo.add %1241, %1246 : tensor<2xui32>
    %1248 = stablehlo.broadcast_in_dim %1240, dims = [] : (tensor<ui32>) -> tensor<2xui32>
    %1249 = stablehlo.add %1242, %1248 : tensor<2xui32>
    %1250 = stablehlo.add %1247, %1249 : tensor<2xui32>
    %1251 = stablehlo.constant dense<13> : tensor<ui32>
    %1252 = stablehlo.broadcast_in_dim %1251, dims = [] : (tensor<ui32>) -> tensor<2xui32>
    %1253 = stablehlo.shift_left %1249, %1252 : tensor<2xui32>
    %1254 = stablehlo.constant dense<19> : tensor<ui32>
    %1255 = stablehlo.broadcast_in_dim %1254, dims = [] : (tensor<ui32>) -> tensor<2xui32>
    %1256 = stablehlo.shift_right_logical %1249, %1255 : tensor<2xui32>
    %1257 = stablehlo.or %1253, %1256 : tensor<2xui32>
    %1258 = stablehlo.xor %1250, %1257 : tensor<2xui32>
    %1259 = stablehlo.add %1250, %1258 : tensor<2xui32>
    %1260 = stablehlo.constant dense<15> : tensor<ui32>
    %1261 = stablehlo.broadcast_in_dim %1260, dims = [] : (tensor<ui32>) -> tensor<2xui32>
    %1262 = stablehlo.shift_left %1258, %1261 : tensor<2xui32>
    %1263 = stablehlo.constant dense<17> : tensor<ui32>
    %1264 = stablehlo.broadcast_in_dim %1263, dims = [] : (tensor<ui32>) -> tensor<2xui32>
    %1265 = stablehlo.shift_right_logical %1258, %1264 : tensor<2xui32>
    %1266 = stablehlo.or %1262, %1265 : tensor<2xui32>
    %1267 = stablehlo.xor %1259, %1266 : tensor<2xui32>
    %1268 = stablehlo.add %1259, %1267 : tensor<2xui32>
    %1269 = stablehlo.constant dense<26> : tensor<ui32>
    %1270 = stablehlo.broadcast_in_dim %1269, dims = [] : (tensor<ui32>) -> tensor<2xui32>
    %1271 = stablehlo.shift_left %1267, %1270 : tensor<2xui32>
    %1272 = stablehlo.constant dense<6> : tensor<ui32>
    %1273 = stablehlo.broadcast_in_dim %1272, dims = [] : (tensor<ui32>) -> tensor<2xui32>
    %1274 = stablehlo.shift_right_logical %1267, %1273 : tensor<2xui32>
    %1275 = stablehlo.or %1271, %1274 : tensor<2xui32>
    %1276 = stablehlo.xor %1268, %1275 : tensor<2xui32>
    %1277 = stablehlo.add %1268, %1276 : tensor<2xui32>
    %1278 = stablehlo.constant dense<6> : tensor<ui32>
    %1279 = stablehlo.broadcast_in_dim %1278, dims = [] : (tensor<ui32>) -> tensor<2xui32>
    %1280 = stablehlo.shift_left %1276, %1279 : tensor<2xui32>
    %1281 = stablehlo.constant dense<26> : tensor<ui32>
    %1282 = stablehlo.broadcast_in_dim %1281, dims = [] : (tensor<ui32>) -> tensor<2xui32>
    %1283 = stablehlo.shift_right_logical %1276, %1282 : tensor<2xui32>
    %1284 = stablehlo.or %1280, %1283 : tensor<2xui32>
    %1285 = stablehlo.xor %1277, %1284 : tensor<2xui32>
    %1286 = stablehlo.broadcast_in_dim %1240, dims = [] : (tensor<ui32>) -> tensor<2xui32>
    %1287 = stablehlo.add %1277, %1286 : tensor<2xui32>
    %1288 = stablehlo.broadcast_in_dim %1245, dims = [] : (tensor<ui32>) -> tensor<2xui32>
    %1289 = stablehlo.add %1285, %1288 : tensor<2xui32>
    %1290 = stablehlo.constant dense<1> : tensor<ui32>
    %1291 = stablehlo.broadcast_in_dim %1290, dims = [] : (tensor<ui32>) -> tensor<2xui32>
    %1292 = stablehlo.add %1289, %1291 : tensor<2xui32>
    %1293 = stablehlo.add %1287, %1292 : tensor<2xui32>
    %1294 = stablehlo.constant dense<17> : tensor<ui32>
    %1295 = stablehlo.broadcast_in_dim %1294, dims = [] : (tensor<ui32>) -> tensor<2xui32>
    %1296 = stablehlo.shift_left %1292, %1295 : tensor<2xui32>
    %1297 = stablehlo.constant dense<15> : tensor<ui32>
    %1298 = stablehlo.broadcast_in_dim %1297, dims = [] : (tensor<ui32>) -> tensor<2xui32>
    %1299 = stablehlo.shift_right_logical %1292, %1298 : tensor<2xui32>
    %1300 = stablehlo.or %1296, %1299 : tensor<2xui32>
    %1301 = stablehlo.xor %1293, %1300 : tensor<2xui32>
    %1302 = stablehlo.add %1293, %1301 : tensor<2xui32>
    %1303 = stablehlo.constant dense<29> : tensor<ui32>
    %1304 = stablehlo.broadcast_in_dim %1303, dims = [] : (tensor<ui32>) -> tensor<2xui32>
    %1305 = stablehlo.shift_left %1301, %1304 : tensor<2xui32>
    %1306 = stablehlo.constant dense<3> : tensor<ui32>
    %1307 = stablehlo.broadcast_in_dim %1306, dims = [] : (tensor<ui32>) -> tensor<2xui32>
    %1308 = stablehlo.shift_right_logical %1301, %1307 : tensor<2xui32>
    %1309 = stablehlo.or %1305, %1308 : tensor<2xui32>
    %1310 = stablehlo.xor %1302, %1309 : tensor<2xui32>
    %1311 = stablehlo.add %1302, %1310 : tensor<2xui32>
    %1312 = stablehlo.constant dense<16> : tensor<ui32>
    %1313 = stablehlo.broadcast_in_dim %1312, dims = [] : (tensor<ui32>) -> tensor<2xui32>
    %1314 = stablehlo.shift_left %1310, %1313 : tensor<2xui32>
    %1315 = stablehlo.constant dense<16> : tensor<ui32>
    %1316 = stablehlo.broadcast_in_dim %1315, dims = [] : (tensor<ui32>) -> tensor<2xui32>
    %1317 = stablehlo.shift_right_logical %1310, %1316 : tensor<2xui32>
    %1318 = stablehlo.or %1314, %1317 : tensor<2xui32>
    %1319 = stablehlo.xor %1311, %1318 : tensor<2xui32>
    %1320 = stablehlo.add %1311, %1319 : tensor<2xui32>
    %1321 = stablehlo.constant dense<24> : tensor<ui32>
    %1322 = stablehlo.broadcast_in_dim %1321, dims = [] : (tensor<ui32>) -> tensor<2xui32>
    %1323 = stablehlo.shift_left %1319, %1322 : tensor<2xui32>
    %1324 = stablehlo.constant dense<8> : tensor<ui32>
    %1325 = stablehlo.broadcast_in_dim %1324, dims = [] : (tensor<ui32>) -> tensor<2xui32>
    %1326 = stablehlo.shift_right_logical %1319, %1325 : tensor<2xui32>
    %1327 = stablehlo.or %1323, %1326 : tensor<2xui32>
    %1328 = stablehlo.xor %1320, %1327 : tensor<2xui32>
    %1329 = stablehlo.broadcast_in_dim %1245, dims = [] : (tensor<ui32>) -> tensor<2xui32>
    %1330 = stablehlo.add %1320, %1329 : tensor<2xui32>
    %1331 = stablehlo.broadcast_in_dim %1238, dims = [] : (tensor<ui32>) -> tensor<2xui32>
    %1332 = stablehlo.add %1328, %1331 : tensor<2xui32>
    %1333 = stablehlo.constant dense<2> : tensor<ui32>
    %1334 = stablehlo.broadcast_in_dim %1333, dims = [] : (tensor<ui32>) -> tensor<2xui32>
    %1335 = stablehlo.add %1332, %1334 : tensor<2xui32>
    %1336 = stablehlo.add %1330, %1335 : tensor<2xui32>
    %1337 = stablehlo.constant dense<13> : tensor<ui32>
    %1338 = stablehlo.broadcast_in_dim %1337, dims = [] : (tensor<ui32>) -> tensor<2xui32>
    %1339 = stablehlo.shift_left %1335, %1338 : tensor<2xui32>
    %1340 = stablehlo.constant dense<19> : tensor<ui32>
    %1341 = stablehlo.broadcast_in_dim %1340, dims = [] : (tensor<ui32>) -> tensor<2xui32>
    %1342 = stablehlo.shift_right_logical %1335, %1341 : tensor<2xui32>
    %1343 = stablehlo.or %1339, %1342 : tensor<2xui32>
    %1344 = stablehlo.xor %1336, %1343 : tensor<2xui32>
    %1345 = stablehlo.add %1336, %1344 : tensor<2xui32>
    %1346 = stablehlo.constant dense<15> : tensor<ui32>
    %1347 = stablehlo.broadcast_in_dim %1346, dims = [] : (tensor<ui32>) -> tensor<2xui32>
    %1348 = stablehlo.shift_left %1344, %1347 : tensor<2xui32>
    %1349 = stablehlo.constant dense<17> : tensor<ui32>
    %1350 = stablehlo.broadcast_in_dim %1349, dims = [] : (tensor<ui32>) -> tensor<2xui32>
    %1351 = stablehlo.shift_right_logical %1344, %1350 : tensor<2xui32>
    %1352 = stablehlo.or %1348, %1351 : tensor<2xui32>
    %1353 = stablehlo.xor %1345, %1352 : tensor<2xui32>
    %1354 = stablehlo.add %1345, %1353 : tensor<2xui32>
    %1355 = stablehlo.constant dense<26> : tensor<ui32>
    %1356 = stablehlo.broadcast_in_dim %1355, dims = [] : (tensor<ui32>) -> tensor<2xui32>
    %1357 = stablehlo.shift_left %1353, %1356 : tensor<2xui32>
    %1358 = stablehlo.constant dense<6> : tensor<ui32>
    %1359 = stablehlo.broadcast_in_dim %1358, dims = [] : (tensor<ui32>) -> tensor<2xui32>
    %1360 = stablehlo.shift_right_logical %1353, %1359 : tensor<2xui32>
    %1361 = stablehlo.or %1357, %1360 : tensor<2xui32>
    %1362 = stablehlo.xor %1354, %1361 : tensor<2xui32>
    %1363 = stablehlo.add %1354, %1362 : tensor<2xui32>
    %1364 = stablehlo.constant dense<6> : tensor<ui32>
    %1365 = stablehlo.broadcast_in_dim %1364, dims = [] : (tensor<ui32>) -> tensor<2xui32>
    %1366 = stablehlo.shift_left %1362, %1365 : tensor<2xui32>
    %1367 = stablehlo.constant dense<26> : tensor<ui32>
    %1368 = stablehlo.broadcast_in_dim %1367, dims = [] : (tensor<ui32>) -> tensor<2xui32>
    %1369 = stablehlo.shift_right_logical %1362, %1368 : tensor<2xui32>
    %1370 = stablehlo.or %1366, %1369 : tensor<2xui32>
    %1371 = stablehlo.xor %1363, %1370 : tensor<2xui32>
    %1372 = stablehlo.broadcast_in_dim %1238, dims = [] : (tensor<ui32>) -> tensor<2xui32>
    %1373 = stablehlo.add %1363, %1372 : tensor<2xui32>
    %1374 = stablehlo.broadcast_in_dim %1240, dims = [] : (tensor<ui32>) -> tensor<2xui32>
    %1375 = stablehlo.add %1371, %1374 : tensor<2xui32>
    %1376 = stablehlo.constant dense<3> : tensor<ui32>
    %1377 = stablehlo.broadcast_in_dim %1376, dims = [] : (tensor<ui32>) -> tensor<2xui32>
    %1378 = stablehlo.add %1375, %1377 : tensor<2xui32>
    %1379 = stablehlo.add %1373, %1378 : tensor<2xui32>
    %1380 = stablehlo.constant dense<17> : tensor<ui32>
    %1381 = stablehlo.broadcast_in_dim %1380, dims = [] : (tensor<ui32>) -> tensor<2xui32>
    %1382 = stablehlo.shift_left %1378, %1381 : tensor<2xui32>
    %1383 = stablehlo.constant dense<15> : tensor<ui32>
    %1384 = stablehlo.broadcast_in_dim %1383, dims = [] : (tensor<ui32>) -> tensor<2xui32>
    %1385 = stablehlo.shift_right_logical %1378, %1384 : tensor<2xui32>
    %1386 = stablehlo.or %1382, %1385 : tensor<2xui32>
    %1387 = stablehlo.xor %1379, %1386 : tensor<2xui32>
    %1388 = stablehlo.add %1379, %1387 : tensor<2xui32>
    %1389 = stablehlo.constant dense<29> : tensor<ui32>
    %1390 = stablehlo.broadcast_in_dim %1389, dims = [] : (tensor<ui32>) -> tensor<2xui32>
    %1391 = stablehlo.shift_left %1387, %1390 : tensor<2xui32>
    %1392 = stablehlo.constant dense<3> : tensor<ui32>
    %1393 = stablehlo.broadcast_in_dim %1392, dims = [] : (tensor<ui32>) -> tensor<2xui32>
    %1394 = stablehlo.shift_right_logical %1387, %1393 : tensor<2xui32>
    %1395 = stablehlo.or %1391, %1394 : tensor<2xui32>
    %1396 = stablehlo.xor %1388, %1395 : tensor<2xui32>
    %1397 = stablehlo.add %1388, %1396 : tensor<2xui32>
    %1398 = stablehlo.constant dense<16> : tensor<ui32>
    %1399 = stablehlo.broadcast_in_dim %1398, dims = [] : (tensor<ui32>) -> tensor<2xui32>
    %1400 = stablehlo.shift_left %1396, %1399 : tensor<2xui32>
    %1401 = stablehlo.constant dense<16> : tensor<ui32>
    %1402 = stablehlo.broadcast_in_dim %1401, dims = [] : (tensor<ui32>) -> tensor<2xui32>
    %1403 = stablehlo.shift_right_logical %1396, %1402 : tensor<2xui32>
    %1404 = stablehlo.or %1400, %1403 : tensor<2xui32>
    %1405 = stablehlo.xor %1397, %1404 : tensor<2xui32>
    %1406 = stablehlo.add %1397, %1405 : tensor<2xui32>
    %1407 = stablehlo.constant dense<24> : tensor<ui32>
    %1408 = stablehlo.broadcast_in_dim %1407, dims = [] : (tensor<ui32>) -> tensor<2xui32>
    %1409 = stablehlo.shift_left %1405, %1408 : tensor<2xui32>
    %1410 = stablehlo.constant dense<8> : tensor<ui32>
    %1411 = stablehlo.broadcast_in_dim %1410, dims = [] : (tensor<ui32>) -> tensor<2xui32>
    %1412 = stablehlo.shift_right_logical %1405, %1411 : tensor<2xui32>
    %1413 = stablehlo.or %1409, %1412 : tensor<2xui32>
    %1414 = stablehlo.xor %1406, %1413 : tensor<2xui32>
    %1415 = stablehlo.broadcast_in_dim %1240, dims = [] : (tensor<ui32>) -> tensor<2xui32>
    %1416 = stablehlo.add %1406, %1415 : tensor<2xui32>
    %1417 = stablehlo.broadcast_in_dim %1245, dims = [] : (tensor<ui32>) -> tensor<2xui32>
    %1418 = stablehlo.add %1414, %1417 : tensor<2xui32>
    %1419 = stablehlo.constant dense<4> : tensor<ui32>
    %1420 = stablehlo.broadcast_in_dim %1419, dims = [] : (tensor<ui32>) -> tensor<2xui32>
    %1421 = stablehlo.add %1418, %1420 : tensor<2xui32>
    %1422 = stablehlo.add %1416, %1421 : tensor<2xui32>
    %1423 = stablehlo.constant dense<13> : tensor<ui32>
    %1424 = stablehlo.broadcast_in_dim %1423, dims = [] : (tensor<ui32>) -> tensor<2xui32>
    %1425 = stablehlo.shift_left %1421, %1424 : tensor<2xui32>
    %1426 = stablehlo.constant dense<19> : tensor<ui32>
    %1427 = stablehlo.broadcast_in_dim %1426, dims = [] : (tensor<ui32>) -> tensor<2xui32>
    %1428 = stablehlo.shift_right_logical %1421, %1427 : tensor<2xui32>
    %1429 = stablehlo.or %1425, %1428 : tensor<2xui32>
    %1430 = stablehlo.xor %1422, %1429 : tensor<2xui32>
    %1431 = stablehlo.add %1422, %1430 : tensor<2xui32>
    %1432 = stablehlo.constant dense<15> : tensor<ui32>
    %1433 = stablehlo.broadcast_in_dim %1432, dims = [] : (tensor<ui32>) -> tensor<2xui32>
    %1434 = stablehlo.shift_left %1430, %1433 : tensor<2xui32>
    %1435 = stablehlo.constant dense<17> : tensor<ui32>
    %1436 = stablehlo.broadcast_in_dim %1435, dims = [] : (tensor<ui32>) -> tensor<2xui32>
    %1437 = stablehlo.shift_right_logical %1430, %1436 : tensor<2xui32>
    %1438 = stablehlo.or %1434, %1437 : tensor<2xui32>
    %1439 = stablehlo.xor %1431, %1438 : tensor<2xui32>
    %1440 = stablehlo.add %1431, %1439 : tensor<2xui32>
    %1441 = stablehlo.constant dense<26> : tensor<ui32>
    %1442 = stablehlo.broadcast_in_dim %1441, dims = [] : (tensor<ui32>) -> tensor<2xui32>
    %1443 = stablehlo.shift_left %1439, %1442 : tensor<2xui32>
    %1444 = stablehlo.constant dense<6> : tensor<ui32>
    %1445 = stablehlo.broadcast_in_dim %1444, dims = [] : (tensor<ui32>) -> tensor<2xui32>
    %1446 = stablehlo.shift_right_logical %1439, %1445 : tensor<2xui32>
    %1447 = stablehlo.or %1443, %1446 : tensor<2xui32>
    %1448 = stablehlo.xor %1440, %1447 : tensor<2xui32>
    %1449 = stablehlo.add %1440, %1448 : tensor<2xui32>
    %1450 = stablehlo.constant dense<6> : tensor<ui32>
    %1451 = stablehlo.broadcast_in_dim %1450, dims = [] : (tensor<ui32>) -> tensor<2xui32>
    %1452 = stablehlo.shift_left %1448, %1451 : tensor<2xui32>
    %1453 = stablehlo.constant dense<26> : tensor<ui32>
    %1454 = stablehlo.broadcast_in_dim %1453, dims = [] : (tensor<ui32>) -> tensor<2xui32>
    %1455 = stablehlo.shift_right_logical %1448, %1454 : tensor<2xui32>
    %1456 = stablehlo.or %1452, %1455 : tensor<2xui32>
    %1457 = stablehlo.xor %1449, %1456 : tensor<2xui32>
    %1458 = stablehlo.broadcast_in_dim %1245, dims = [] : (tensor<ui32>) -> tensor<2xui32>
    %1459 = stablehlo.add %1449, %1458 : tensor<2xui32>
    %1460 = stablehlo.broadcast_in_dim %1238, dims = [] : (tensor<ui32>) -> tensor<2xui32>
    %1461 = stablehlo.add %1457, %1460 : tensor<2xui32>
    %1462 = stablehlo.constant dense<5> : tensor<ui32>
    %1463 = stablehlo.broadcast_in_dim %1462, dims = [] : (tensor<ui32>) -> tensor<2xui32>
    %1464 = stablehlo.add %1461, %1463 : tensor<2xui32>
    %1465 = stablehlo.concatenate %1459, %1464, dim = 0 : (tensor<2xui32>, tensor<2xui32>) -> tensor<4xui32>
    %1466 = stablehlo.reshape %1465 : (tensor<4xui32>) -> tensor<2x2xui32>
    %1467 = "stablehlo.slice"(%1466) {limit_indices = dense<[1, 2]> : tensor<2xi64>, start_indices = dense<0> : tensor<2xi64>, strides = dense<1> : tensor<2xi64>} : (tensor<2x2xui32>) -> tensor<1x2xui32>
    %1468 = stablehlo.reshape %1467 : (tensor<1x2xui32>) -> tensor<2xui32>
    %1469 = "stablehlo.slice"(%1466) {limit_indices = dense<2> : tensor<2xi64>, start_indices = dense<[1, 0]> : tensor<2xi64>, strides = dense<1> : tensor<2xi64>} : (tensor<2x2xui32>) -> tensor<1x2xui32>
    %1470 = stablehlo.reshape %1469 : (tensor<1x2xui32>) -> tensor<2xui32>
    %1471 = stablehlo.iota dim = 0 : tensor<4xui32>
    %1472 = "stablehlo.slice"(%1470) {limit_indices = dense<1> : tensor<1xi64>, start_indices = dense<0> : tensor<1xi64>, strides = dense<1> : tensor<1xi64>} : (tensor<2xui32>) -> tensor<1xui32>
    %1473 = stablehlo.reshape %1472 : (tensor<1xui32>) -> tensor<ui32>
    %1474 = "stablehlo.slice"(%1470) {limit_indices = dense<2> : tensor<1xi64>, start_indices = dense<1> : tensor<1xi64>, strides = dense<1> : tensor<1xi64>} : (tensor<2xui32>) -> tensor<1xui32>
    %1475 = stablehlo.reshape %1474 : (tensor<1xui32>) -> tensor<ui32>
    %1476 = "stablehlo.slice"(%1471) {limit_indices = dense<2> : tensor<1xi64>, start_indices = dense<0> : tensor<1xi64>, strides = dense<1> : tensor<1xi64>} : (tensor<4xui32>) -> tensor<2xui32>
    %1477 = "stablehlo.slice"(%1471) {limit_indices = dense<4> : tensor<1xi64>, start_indices = dense<2> : tensor<1xi64>, strides = dense<1> : tensor<1xi64>} : (tensor<4xui32>) -> tensor<2xui32>
    %1478 = stablehlo.xor %1473, %1475 : tensor<ui32>
    %1479 = stablehlo.constant dense<466688986> : tensor<ui32>
    %1480 = stablehlo.xor %1478, %1479 : tensor<ui32>
    %1481 = stablehlo.broadcast_in_dim %1473, dims = [] : (tensor<ui32>) -> tensor<2xui32>
    %1482 = stablehlo.add %1476, %1481 : tensor<2xui32>
    %1483 = stablehlo.broadcast_in_dim %1475, dims = [] : (tensor<ui32>) -> tensor<2xui32>
    %1484 = stablehlo.add %1477, %1483 : tensor<2xui32>
    %1485 = stablehlo.add %1482, %1484 : tensor<2xui32>
    %1486 = stablehlo.constant dense<13> : tensor<ui32>
    %1487 = stablehlo.broadcast_in_dim %1486, dims = [] : (tensor<ui32>) -> tensor<2xui32>
    %1488 = stablehlo.shift_left %1484, %1487 : tensor<2xui32>
    %1489 = stablehlo.constant dense<19> : tensor<ui32>
    %1490 = stablehlo.broadcast_in_dim %1489, dims = [] : (tensor<ui32>) -> tensor<2xui32>
    %1491 = stablehlo.shift_right_logical %1484, %1490 : tensor<2xui32>
    %1492 = stablehlo.or %1488, %1491 : tensor<2xui32>
    %1493 = stablehlo.xor %1485, %1492 : tensor<2xui32>
    %1494 = stablehlo.add %1485, %1493 : tensor<2xui32>
    %1495 = stablehlo.constant dense<15> : tensor<ui32>
    %1496 = stablehlo.broadcast_in_dim %1495, dims = [] : (tensor<ui32>) -> tensor<2xui32>
    %1497 = stablehlo.shift_left %1493, %1496 : tensor<2xui32>
    %1498 = stablehlo.constant dense<17> : tensor<ui32>
    %1499 = stablehlo.broadcast_in_dim %1498, dims = [] : (tensor<ui32>) -> tensor<2xui32>
    %1500 = stablehlo.shift_right_logical %1493, %1499 : tensor<2xui32>
    %1501 = stablehlo.or %1497, %1500 : tensor<2xui32>
    %1502 = stablehlo.xor %1494, %1501 : tensor<2xui32>
    %1503 = stablehlo.add %1494, %1502 : tensor<2xui32>
    %1504 = stablehlo.constant dense<26> : tensor<ui32>
    %1505 = stablehlo.broadcast_in_dim %1504, dims = [] : (tensor<ui32>) -> tensor<2xui32>
    %1506 = stablehlo.shift_left %1502, %1505 : tensor<2xui32>
    %1507 = stablehlo.constant dense<6> : tensor<ui32>
    %1508 = stablehlo.broadcast_in_dim %1507, dims = [] : (tensor<ui32>) -> tensor<2xui32>
    %1509 = stablehlo.shift_right_logical %1502, %1508 : tensor<2xui32>
    %1510 = stablehlo.or %1506, %1509 : tensor<2xui32>
    %1511 = stablehlo.xor %1503, %1510 : tensor<2xui32>
    %1512 = stablehlo.add %1503, %1511 : tensor<2xui32>
    %1513 = stablehlo.constant dense<6> : tensor<ui32>
    %1514 = stablehlo.broadcast_in_dim %1513, dims = [] : (tensor<ui32>) -> tensor<2xui32>
    %1515 = stablehlo.shift_left %1511, %1514 : tensor<2xui32>
    %1516 = stablehlo.constant dense<26> : tensor<ui32>
    %1517 = stablehlo.broadcast_in_dim %1516, dims = [] : (tensor<ui32>) -> tensor<2xui32>
    %1518 = stablehlo.shift_right_logical %1511, %1517 : tensor<2xui32>
    %1519 = stablehlo.or %1515, %1518 : tensor<2xui32>
    %1520 = stablehlo.xor %1512, %1519 : tensor<2xui32>
    %1521 = stablehlo.broadcast_in_dim %1475, dims = [] : (tensor<ui32>) -> tensor<2xui32>
    %1522 = stablehlo.add %1512, %1521 : tensor<2xui32>
    %1523 = stablehlo.broadcast_in_dim %1480, dims = [] : (tensor<ui32>) -> tensor<2xui32>
    %1524 = stablehlo.add %1520, %1523 : tensor<2xui32>
    %1525 = stablehlo.constant dense<1> : tensor<ui32>
    %1526 = stablehlo.broadcast_in_dim %1525, dims = [] : (tensor<ui32>) -> tensor<2xui32>
    %1527 = stablehlo.add %1524, %1526 : tensor<2xui32>
    %1528 = stablehlo.add %1522, %1527 : tensor<2xui32>
    %1529 = stablehlo.constant dense<17> : tensor<ui32>
    %1530 = stablehlo.broadcast_in_dim %1529, dims = [] : (tensor<ui32>) -> tensor<2xui32>
    %1531 = stablehlo.shift_left %1527, %1530 : tensor<2xui32>
    %1532 = stablehlo.constant dense<15> : tensor<ui32>
    %1533 = stablehlo.broadcast_in_dim %1532, dims = [] : (tensor<ui32>) -> tensor<2xui32>
    %1534 = stablehlo.shift_right_logical %1527, %1533 : tensor<2xui32>
    %1535 = stablehlo.or %1531, %1534 : tensor<2xui32>
    %1536 = stablehlo.xor %1528, %1535 : tensor<2xui32>
    %1537 = stablehlo.add %1528, %1536 : tensor<2xui32>
    %1538 = stablehlo.constant dense<29> : tensor<ui32>
    %1539 = stablehlo.broadcast_in_dim %1538, dims = [] : (tensor<ui32>) -> tensor<2xui32>
    %1540 = stablehlo.shift_left %1536, %1539 : tensor<2xui32>
    %1541 = stablehlo.constant dense<3> : tensor<ui32>
    %1542 = stablehlo.broadcast_in_dim %1541, dims = [] : (tensor<ui32>) -> tensor<2xui32>
    %1543 = stablehlo.shift_right_logical %1536, %1542 : tensor<2xui32>
    %1544 = stablehlo.or %1540, %1543 : tensor<2xui32>
    %1545 = stablehlo.xor %1537, %1544 : tensor<2xui32>
    %1546 = stablehlo.add %1537, %1545 : tensor<2xui32>
    %1547 = stablehlo.constant dense<16> : tensor<ui32>
    %1548 = stablehlo.broadcast_in_dim %1547, dims = [] : (tensor<ui32>) -> tensor<2xui32>
    %1549 = stablehlo.shift_left %1545, %1548 : tensor<2xui32>
    %1550 = stablehlo.constant dense<16> : tensor<ui32>
    %1551 = stablehlo.broadcast_in_dim %1550, dims = [] : (tensor<ui32>) -> tensor<2xui32>
    %1552 = stablehlo.shift_right_logical %1545, %1551 : tensor<2xui32>
    %1553 = stablehlo.or %1549, %1552 : tensor<2xui32>
    %1554 = stablehlo.xor %1546, %1553 : tensor<2xui32>
    %1555 = stablehlo.add %1546, %1554 : tensor<2xui32>
    %1556 = stablehlo.constant dense<24> : tensor<ui32>
    %1557 = stablehlo.broadcast_in_dim %1556, dims = [] : (tensor<ui32>) -> tensor<2xui32>
    %1558 = stablehlo.shift_left %1554, %1557 : tensor<2xui32>
    %1559 = stablehlo.constant dense<8> : tensor<ui32>
    %1560 = stablehlo.broadcast_in_dim %1559, dims = [] : (tensor<ui32>) -> tensor<2xui32>
    %1561 = stablehlo.shift_right_logical %1554, %1560 : tensor<2xui32>
    %1562 = stablehlo.or %1558, %1561 : tensor<2xui32>
    %1563 = stablehlo.xor %1555, %1562 : tensor<2xui32>
    %1564 = stablehlo.broadcast_in_dim %1480, dims = [] : (tensor<ui32>) -> tensor<2xui32>
    %1565 = stablehlo.add %1555, %1564 : tensor<2xui32>
    %1566 = stablehlo.broadcast_in_dim %1473, dims = [] : (tensor<ui32>) -> tensor<2xui32>
    %1567 = stablehlo.add %1563, %1566 : tensor<2xui32>
    %1568 = stablehlo.constant dense<2> : tensor<ui32>
    %1569 = stablehlo.broadcast_in_dim %1568, dims = [] : (tensor<ui32>) -> tensor<2xui32>
    %1570 = stablehlo.add %1567, %1569 : tensor<2xui32>
    %1571 = stablehlo.add %1565, %1570 : tensor<2xui32>
    %1572 = stablehlo.constant dense<13> : tensor<ui32>
    %1573 = stablehlo.broadcast_in_dim %1572, dims = [] : (tensor<ui32>) -> tensor<2xui32>
    %1574 = stablehlo.shift_left %1570, %1573 : tensor<2xui32>
    %1575 = stablehlo.constant dense<19> : tensor<ui32>
    %1576 = stablehlo.broadcast_in_dim %1575, dims = [] : (tensor<ui32>) -> tensor<2xui32>
    %1577 = stablehlo.shift_right_logical %1570, %1576 : tensor<2xui32>
    %1578 = stablehlo.or %1574, %1577 : tensor<2xui32>
    %1579 = stablehlo.xor %1571, %1578 : tensor<2xui32>
    %1580 = stablehlo.add %1571, %1579 : tensor<2xui32>
    %1581 = stablehlo.constant dense<15> : tensor<ui32>
    %1582 = stablehlo.broadcast_in_dim %1581, dims = [] : (tensor<ui32>) -> tensor<2xui32>
    %1583 = stablehlo.shift_left %1579, %1582 : tensor<2xui32>
    %1584 = stablehlo.constant dense<17> : tensor<ui32>
    %1585 = stablehlo.broadcast_in_dim %1584, dims = [] : (tensor<ui32>) -> tensor<2xui32>
    %1586 = stablehlo.shift_right_logical %1579, %1585 : tensor<2xui32>
    %1587 = stablehlo.or %1583, %1586 : tensor<2xui32>
    %1588 = stablehlo.xor %1580, %1587 : tensor<2xui32>
    %1589 = stablehlo.add %1580, %1588 : tensor<2xui32>
    %1590 = stablehlo.constant dense<26> : tensor<ui32>
    %1591 = stablehlo.broadcast_in_dim %1590, dims = [] : (tensor<ui32>) -> tensor<2xui32>
    %1592 = stablehlo.shift_left %1588, %1591 : tensor<2xui32>
    %1593 = stablehlo.constant dense<6> : tensor<ui32>
    %1594 = stablehlo.broadcast_in_dim %1593, dims = [] : (tensor<ui32>) -> tensor<2xui32>
    %1595 = stablehlo.shift_right_logical %1588, %1594 : tensor<2xui32>
    %1596 = stablehlo.or %1592, %1595 : tensor<2xui32>
    %1597 = stablehlo.xor %1589, %1596 : tensor<2xui32>
    %1598 = stablehlo.add %1589, %1597 : tensor<2xui32>
    %1599 = stablehlo.constant dense<6> : tensor<ui32>
    %1600 = stablehlo.broadcast_in_dim %1599, dims = [] : (tensor<ui32>) -> tensor<2xui32>
    %1601 = stablehlo.shift_left %1597, %1600 : tensor<2xui32>
    %1602 = stablehlo.constant dense<26> : tensor<ui32>
    %1603 = stablehlo.broadcast_in_dim %1602, dims = [] : (tensor<ui32>) -> tensor<2xui32>
    %1604 = stablehlo.shift_right_logical %1597, %1603 : tensor<2xui32>
    %1605 = stablehlo.or %1601, %1604 : tensor<2xui32>
    %1606 = stablehlo.xor %1598, %1605 : tensor<2xui32>
    %1607 = stablehlo.broadcast_in_dim %1473, dims = [] : (tensor<ui32>) -> tensor<2xui32>
    %1608 = stablehlo.add %1598, %1607 : tensor<2xui32>
    %1609 = stablehlo.broadcast_in_dim %1475, dims = [] : (tensor<ui32>) -> tensor<2xui32>
    %1610 = stablehlo.add %1606, %1609 : tensor<2xui32>
    %1611 = stablehlo.constant dense<3> : tensor<ui32>
    %1612 = stablehlo.broadcast_in_dim %1611, dims = [] : (tensor<ui32>) -> tensor<2xui32>
    %1613 = stablehlo.add %1610, %1612 : tensor<2xui32>
    %1614 = stablehlo.add %1608, %1613 : tensor<2xui32>
    %1615 = stablehlo.constant dense<17> : tensor<ui32>
    %1616 = stablehlo.broadcast_in_dim %1615, dims = [] : (tensor<ui32>) -> tensor<2xui32>
    %1617 = stablehlo.shift_left %1613, %1616 : tensor<2xui32>
    %1618 = stablehlo.constant dense<15> : tensor<ui32>
    %1619 = stablehlo.broadcast_in_dim %1618, dims = [] : (tensor<ui32>) -> tensor<2xui32>
    %1620 = stablehlo.shift_right_logical %1613, %1619 : tensor<2xui32>
    %1621 = stablehlo.or %1617, %1620 : tensor<2xui32>
    %1622 = stablehlo.xor %1614, %1621 : tensor<2xui32>
    %1623 = stablehlo.add %1614, %1622 : tensor<2xui32>
    %1624 = stablehlo.constant dense<29> : tensor<ui32>
    %1625 = stablehlo.broadcast_in_dim %1624, dims = [] : (tensor<ui32>) -> tensor<2xui32>
    %1626 = stablehlo.shift_left %1622, %1625 : tensor<2xui32>
    %1627 = stablehlo.constant dense<3> : tensor<ui32>
    %1628 = stablehlo.broadcast_in_dim %1627, dims = [] : (tensor<ui32>) -> tensor<2xui32>
    %1629 = stablehlo.shift_right_logical %1622, %1628 : tensor<2xui32>
    %1630 = stablehlo.or %1626, %1629 : tensor<2xui32>
    %1631 = stablehlo.xor %1623, %1630 : tensor<2xui32>
    %1632 = stablehlo.add %1623, %1631 : tensor<2xui32>
    %1633 = stablehlo.constant dense<16> : tensor<ui32>
    %1634 = stablehlo.broadcast_in_dim %1633, dims = [] : (tensor<ui32>) -> tensor<2xui32>
    %1635 = stablehlo.shift_left %1631, %1634 : tensor<2xui32>
    %1636 = stablehlo.constant dense<16> : tensor<ui32>
    %1637 = stablehlo.broadcast_in_dim %1636, dims = [] : (tensor<ui32>) -> tensor<2xui32>
    %1638 = stablehlo.shift_right_logical %1631, %1637 : tensor<2xui32>
    %1639 = stablehlo.or %1635, %1638 : tensor<2xui32>
    %1640 = stablehlo.xor %1632, %1639 : tensor<2xui32>
    %1641 = stablehlo.add %1632, %1640 : tensor<2xui32>
    %1642 = stablehlo.constant dense<24> : tensor<ui32>
    %1643 = stablehlo.broadcast_in_dim %1642, dims = [] : (tensor<ui32>) -> tensor<2xui32>
    %1644 = stablehlo.shift_left %1640, %1643 : tensor<2xui32>
    %1645 = stablehlo.constant dense<8> : tensor<ui32>
    %1646 = stablehlo.broadcast_in_dim %1645, dims = [] : (tensor<ui32>) -> tensor<2xui32>
    %1647 = stablehlo.shift_right_logical %1640, %1646 : tensor<2xui32>
    %1648 = stablehlo.or %1644, %1647 : tensor<2xui32>
    %1649 = stablehlo.xor %1641, %1648 : tensor<2xui32>
    %1650 = stablehlo.broadcast_in_dim %1475, dims = [] : (tensor<ui32>) -> tensor<2xui32>
    %1651 = stablehlo.add %1641, %1650 : tensor<2xui32>
    %1652 = stablehlo.broadcast_in_dim %1480, dims = [] : (tensor<ui32>) -> tensor<2xui32>
    %1653 = stablehlo.add %1649, %1652 : tensor<2xui32>
    %1654 = stablehlo.constant dense<4> : tensor<ui32>
    %1655 = stablehlo.broadcast_in_dim %1654, dims = [] : (tensor<ui32>) -> tensor<2xui32>
    %1656 = stablehlo.add %1653, %1655 : tensor<2xui32>
    %1657 = stablehlo.add %1651, %1656 : tensor<2xui32>
    %1658 = stablehlo.constant dense<13> : tensor<ui32>
    %1659 = stablehlo.broadcast_in_dim %1658, dims = [] : (tensor<ui32>) -> tensor<2xui32>
    %1660 = stablehlo.shift_left %1656, %1659 : tensor<2xui32>
    %1661 = stablehlo.constant dense<19> : tensor<ui32>
    %1662 = stablehlo.broadcast_in_dim %1661, dims = [] : (tensor<ui32>) -> tensor<2xui32>
    %1663 = stablehlo.shift_right_logical %1656, %1662 : tensor<2xui32>
    %1664 = stablehlo.or %1660, %1663 : tensor<2xui32>
    %1665 = stablehlo.xor %1657, %1664 : tensor<2xui32>
    %1666 = stablehlo.add %1657, %1665 : tensor<2xui32>
    %1667 = stablehlo.constant dense<15> : tensor<ui32>
    %1668 = stablehlo.broadcast_in_dim %1667, dims = [] : (tensor<ui32>) -> tensor<2xui32>
    %1669 = stablehlo.shift_left %1665, %1668 : tensor<2xui32>
    %1670 = stablehlo.constant dense<17> : tensor<ui32>
    %1671 = stablehlo.broadcast_in_dim %1670, dims = [] : (tensor<ui32>) -> tensor<2xui32>
    %1672 = stablehlo.shift_right_logical %1665, %1671 : tensor<2xui32>
    %1673 = stablehlo.or %1669, %1672 : tensor<2xui32>
    %1674 = stablehlo.xor %1666, %1673 : tensor<2xui32>
    %1675 = stablehlo.add %1666, %1674 : tensor<2xui32>
    %1676 = stablehlo.constant dense<26> : tensor<ui32>
    %1677 = stablehlo.broadcast_in_dim %1676, dims = [] : (tensor<ui32>) -> tensor<2xui32>
    %1678 = stablehlo.shift_left %1674, %1677 : tensor<2xui32>
    %1679 = stablehlo.constant dense<6> : tensor<ui32>
    %1680 = stablehlo.broadcast_in_dim %1679, dims = [] : (tensor<ui32>) -> tensor<2xui32>
    %1681 = stablehlo.shift_right_logical %1674, %1680 : tensor<2xui32>
    %1682 = stablehlo.or %1678, %1681 : tensor<2xui32>
    %1683 = stablehlo.xor %1675, %1682 : tensor<2xui32>
    %1684 = stablehlo.add %1675, %1683 : tensor<2xui32>
    %1685 = stablehlo.constant dense<6> : tensor<ui32>
    %1686 = stablehlo.broadcast_in_dim %1685, dims = [] : (tensor<ui32>) -> tensor<2xui32>
    %1687 = stablehlo.shift_left %1683, %1686 : tensor<2xui32>
    %1688 = stablehlo.constant dense<26> : tensor<ui32>
    %1689 = stablehlo.broadcast_in_dim %1688, dims = [] : (tensor<ui32>) -> tensor<2xui32>
    %1690 = stablehlo.shift_right_logical %1683, %1689 : tensor<2xui32>
    %1691 = stablehlo.or %1687, %1690 : tensor<2xui32>
    %1692 = stablehlo.xor %1684, %1691 : tensor<2xui32>
    %1693 = stablehlo.broadcast_in_dim %1480, dims = [] : (tensor<ui32>) -> tensor<2xui32>
    %1694 = stablehlo.add %1684, %1693 : tensor<2xui32>
    %1695 = stablehlo.broadcast_in_dim %1473, dims = [] : (tensor<ui32>) -> tensor<2xui32>
    %1696 = stablehlo.add %1692, %1695 : tensor<2xui32>
    %1697 = stablehlo.constant dense<5> : tensor<ui32>
    %1698 = stablehlo.broadcast_in_dim %1697, dims = [] : (tensor<ui32>) -> tensor<2xui32>
    %1699 = stablehlo.add %1696, %1698 : tensor<2xui32>
    %1700 = stablehlo.concatenate %1694, %1699, dim = 0 : (tensor<2xui32>, tensor<2xui32>) -> tensor<4xui32>
    %1701 = stablehlo.reshape %1700 : (tensor<4xui32>) -> tensor<2x2xui32>
    %1702 = "stablehlo.slice"(%1701) {limit_indices = dense<[1, 2]> : tensor<2xi64>, start_indices = dense<0> : tensor<2xi64>, strides = dense<1> : tensor<2xi64>} : (tensor<2x2xui32>) -> tensor<1x2xui32>
    %1703 = stablehlo.reshape %1702 : (tensor<1x2xui32>) -> tensor<2xui32>
    %1704 = "stablehlo.slice"(%1701) {limit_indices = dense<2> : tensor<2xi64>, start_indices = dense<[1, 0]> : tensor<2xi64>, strides = dense<1> : tensor<2xi64>} : (tensor<2x2xui32>) -> tensor<1x2xui32>
    %1705 = stablehlo.reshape %1704 : (tensor<1x2xui32>) -> tensor<2xui32>
    %1706 = stablehlo.constant dense<7.812500e-03> : tensor<f32>
    %1707 = stablehlo.sqrt %1706 : tensor<f32>
    %1708 = stablehlo.constant dense<0.879625678> : tensor<f32>
    %1709 = stablehlo.divide %1707, %1708 : tensor<f32>
    %1710 = stablehlo.constant dense<-2.000000e+00> : tensor<f32>
    %1711 = stablehlo.constant dense<1.41421354> : tensor<f32>
    %1712 = stablehlo.divide %1710, %1711 : tensor<f32>
    %1713 = chlo.erf %1712 : tensor<f32> -> tensor<f32>
    %1714 = stablehlo.constant dense<2.000000e+00> : tensor<f32>
    %1715 = stablehlo.constant dense<1.41421354> : tensor<f32>
    %1716 = stablehlo.divide %1714, %1715 : tensor<f32>
    %1717 = chlo.erf %1716 : tensor<f32> -> tensor<f32>
    %1718 = stablehlo.broadcast_in_dim %1713, dims = [] : (tensor<f32>) -> tensor<1x1xf32>
    %1719 = stablehlo.broadcast_in_dim %1717, dims = [] : (tensor<f32>) -> tensor<1x1xf32>
    %1720 = stablehlo.iota dim = 0 : tensor<16384xui32>
    %1721 = "stablehlo.slice"(%1703) {limit_indices = dense<1> : tensor<1xi64>, start_indices = dense<0> : tensor<1xi64>, strides = dense<1> : tensor<1xi64>} : (tensor<2xui32>) -> tensor<1xui32>
    %1722 = stablehlo.reshape %1721 : (tensor<1xui32>) -> tensor<ui32>
    %1723 = "stablehlo.slice"(%1703) {limit_indices = dense<2> : tensor<1xi64>, start_indices = dense<1> : tensor<1xi64>, strides = dense<1> : tensor<1xi64>} : (tensor<2xui32>) -> tensor<1xui32>
    %1724 = stablehlo.reshape %1723 : (tensor<1xui32>) -> tensor<ui32>
    %1725 = "stablehlo.slice"(%1720) {limit_indices = dense<8192> : tensor<1xi64>, start_indices = dense<0> : tensor<1xi64>, strides = dense<1> : tensor<1xi64>} : (tensor<16384xui32>) -> tensor<8192xui32>
    %1726 = "stablehlo.slice"(%1720) {limit_indices = dense<16384> : tensor<1xi64>, start_indices = dense<8192> : tensor<1xi64>, strides = dense<1> : tensor<1xi64>} : (tensor<16384xui32>) -> tensor<8192xui32>
    %1727 = stablehlo.xor %1722, %1724 : tensor<ui32>
    %1728 = stablehlo.constant dense<466688986> : tensor<ui32>
    %1729 = stablehlo.xor %1727, %1728 : tensor<ui32>
    %1730 = stablehlo.broadcast_in_dim %1722, dims = [] : (tensor<ui32>) -> tensor<8192xui32>
    %1731 = stablehlo.add %1725, %1730 : tensor<8192xui32>
    %1732 = stablehlo.broadcast_in_dim %1724, dims = [] : (tensor<ui32>) -> tensor<8192xui32>
    %1733 = stablehlo.add %1726, %1732 : tensor<8192xui32>
    %1734 = stablehlo.add %1731, %1733 : tensor<8192xui32>
    %1735 = stablehlo.constant dense<13> : tensor<ui32>
    %1736 = stablehlo.broadcast_in_dim %1735, dims = [] : (tensor<ui32>) -> tensor<8192xui32>
    %1737 = stablehlo.shift_left %1733, %1736 : tensor<8192xui32>
    %1738 = stablehlo.constant dense<19> : tensor<ui32>
    %1739 = stablehlo.broadcast_in_dim %1738, dims = [] : (tensor<ui32>) -> tensor<8192xui32>
    %1740 = stablehlo.shift_right_logical %1733, %1739 : tensor<8192xui32>
    %1741 = stablehlo.or %1737, %1740 : tensor<8192xui32>
    %1742 = stablehlo.xor %1734, %1741 : tensor<8192xui32>
    %1743 = stablehlo.add %1734, %1742 : tensor<8192xui32>
    %1744 = stablehlo.constant dense<15> : tensor<ui32>
    %1745 = stablehlo.broadcast_in_dim %1744, dims = [] : (tensor<ui32>) -> tensor<8192xui32>
    %1746 = stablehlo.shift_left %1742, %1745 : tensor<8192xui32>
    %1747 = stablehlo.constant dense<17> : tensor<ui32>
    %1748 = stablehlo.broadcast_in_dim %1747, dims = [] : (tensor<ui32>) -> tensor<8192xui32>
    %1749 = stablehlo.shift_right_logical %1742, %1748 : tensor<8192xui32>
    %1750 = stablehlo.or %1746, %1749 : tensor<8192xui32>
    %1751 = stablehlo.xor %1743, %1750 : tensor<8192xui32>
    %1752 = stablehlo.add %1743, %1751 : tensor<8192xui32>
    %1753 = stablehlo.constant dense<26> : tensor<ui32>
    %1754 = stablehlo.broadcast_in_dim %1753, dims = [] : (tensor<ui32>) -> tensor<8192xui32>
    %1755 = stablehlo.shift_left %1751, %1754 : tensor<8192xui32>
    %1756 = stablehlo.constant dense<6> : tensor<ui32>
    %1757 = stablehlo.broadcast_in_dim %1756, dims = [] : (tensor<ui32>) -> tensor<8192xui32>
    %1758 = stablehlo.shift_right_logical %1751, %1757 : tensor<8192xui32>
    %1759 = stablehlo.or %1755, %1758 : tensor<8192xui32>
    %1760 = stablehlo.xor %1752, %1759 : tensor<8192xui32>
    %1761 = stablehlo.add %1752, %1760 : tensor<8192xui32>
    %1762 = stablehlo.constant dense<6> : tensor<ui32>
    %1763 = stablehlo.broadcast_in_dim %1762, dims = [] : (tensor<ui32>) -> tensor<8192xui32>
    %1764 = stablehlo.shift_left %1760, %1763 : tensor<8192xui32>
    %1765 = stablehlo.constant dense<26> : tensor<ui32>
    %1766 = stablehlo.broadcast_in_dim %1765, dims = [] : (tensor<ui32>) -> tensor<8192xui32>
    %1767 = stablehlo.shift_right_logical %1760, %1766 : tensor<8192xui32>
    %1768 = stablehlo.or %1764, %1767 : tensor<8192xui32>
    %1769 = stablehlo.xor %1761, %1768 : tensor<8192xui32>
    %1770 = stablehlo.broadcast_in_dim %1724, dims = [] : (tensor<ui32>) -> tensor<8192xui32>
    %1771 = stablehlo.add %1761, %1770 : tensor<8192xui32>
    %1772 = stablehlo.broadcast_in_dim %1729, dims = [] : (tensor<ui32>) -> tensor<8192xui32>
    %1773 = stablehlo.add %1769, %1772 : tensor<8192xui32>
    %1774 = stablehlo.constant dense<1> : tensor<ui32>
    %1775 = stablehlo.broadcast_in_dim %1774, dims = [] : (tensor<ui32>) -> tensor<8192xui32>
    %1776 = stablehlo.add %1773, %1775 : tensor<8192xui32>
    %1777 = stablehlo.add %1771, %1776 : tensor<8192xui32>
    %1778 = stablehlo.constant dense<17> : tensor<ui32>
    %1779 = stablehlo.broadcast_in_dim %1778, dims = [] : (tensor<ui32>) -> tensor<8192xui32>
    %1780 = stablehlo.shift_left %1776, %1779 : tensor<8192xui32>
    %1781 = stablehlo.constant dense<15> : tensor<ui32>
    %1782 = stablehlo.broadcast_in_dim %1781, dims = [] : (tensor<ui32>) -> tensor<8192xui32>
    %1783 = stablehlo.shift_right_logical %1776, %1782 : tensor<8192xui32>
    %1784 = stablehlo.or %1780, %1783 : tensor<8192xui32>
    %1785 = stablehlo.xor %1777, %1784 : tensor<8192xui32>
    %1786 = stablehlo.add %1777, %1785 : tensor<8192xui32>
    %1787 = stablehlo.constant dense<29> : tensor<ui32>
    %1788 = stablehlo.broadcast_in_dim %1787, dims = [] : (tensor<ui32>) -> tensor<8192xui32>
    %1789 = stablehlo.shift_left %1785, %1788 : tensor<8192xui32>
    %1790 = stablehlo.constant dense<3> : tensor<ui32>
    %1791 = stablehlo.broadcast_in_dim %1790, dims = [] : (tensor<ui32>) -> tensor<8192xui32>
    %1792 = stablehlo.shift_right_logical %1785, %1791 : tensor<8192xui32>
    %1793 = stablehlo.or %1789, %1792 : tensor<8192xui32>
    %1794 = stablehlo.xor %1786, %1793 : tensor<8192xui32>
    %1795 = stablehlo.add %1786, %1794 : tensor<8192xui32>
    %1796 = stablehlo.constant dense<16> : tensor<ui32>
    %1797 = stablehlo.broadcast_in_dim %1796, dims = [] : (tensor<ui32>) -> tensor<8192xui32>
    %1798 = stablehlo.shift_left %1794, %1797 : tensor<8192xui32>
    %1799 = stablehlo.constant dense<16> : tensor<ui32>
    %1800 = stablehlo.broadcast_in_dim %1799, dims = [] : (tensor<ui32>) -> tensor<8192xui32>
    %1801 = stablehlo.shift_right_logical %1794, %1800 : tensor<8192xui32>
    %1802 = stablehlo.or %1798, %1801 : tensor<8192xui32>
    %1803 = stablehlo.xor %1795, %1802 : tensor<8192xui32>
    %1804 = stablehlo.add %1795, %1803 : tensor<8192xui32>
    %1805 = stablehlo.constant dense<24> : tensor<ui32>
    %1806 = stablehlo.broadcast_in_dim %1805, dims = [] : (tensor<ui32>) -> tensor<8192xui32>
    %1807 = stablehlo.shift_left %1803, %1806 : tensor<8192xui32>
    %1808 = stablehlo.constant dense<8> : tensor<ui32>
    %1809 = stablehlo.broadcast_in_dim %1808, dims = [] : (tensor<ui32>) -> tensor<8192xui32>
    %1810 = stablehlo.shift_right_logical %1803, %1809 : tensor<8192xui32>
    %1811 = stablehlo.or %1807, %1810 : tensor<8192xui32>
    %1812 = stablehlo.xor %1804, %1811 : tensor<8192xui32>
    %1813 = stablehlo.broadcast_in_dim %1729, dims = [] : (tensor<ui32>) -> tensor<8192xui32>
    %1814 = stablehlo.add %1804, %1813 : tensor<8192xui32>
    %1815 = stablehlo.broadcast_in_dim %1722, dims = [] : (tensor<ui32>) -> tensor<8192xui32>
    %1816 = stablehlo.add %1812, %1815 : tensor<8192xui32>
    %1817 = stablehlo.constant dense<2> : tensor<ui32>
    %1818 = stablehlo.broadcast_in_dim %1817, dims = [] : (tensor<ui32>) -> tensor<8192xui32>
    %1819 = stablehlo.add %1816, %1818 : tensor<8192xui32>
    %1820 = stablehlo.add %1814, %1819 : tensor<8192xui32>
    %1821 = stablehlo.constant dense<13> : tensor<ui32>
    %1822 = stablehlo.broadcast_in_dim %1821, dims = [] : (tensor<ui32>) -> tensor<8192xui32>
    %1823 = stablehlo.shift_left %1819, %1822 : tensor<8192xui32>
    %1824 = stablehlo.constant dense<19> : tensor<ui32>
    %1825 = stablehlo.broadcast_in_dim %1824, dims = [] : (tensor<ui32>) -> tensor<8192xui32>
    %1826 = stablehlo.shift_right_logical %1819, %1825 : tensor<8192xui32>
    %1827 = stablehlo.or %1823, %1826 : tensor<8192xui32>
    %1828 = stablehlo.xor %1820, %1827 : tensor<8192xui32>
    %1829 = stablehlo.add %1820, %1828 : tensor<8192xui32>
    %1830 = stablehlo.constant dense<15> : tensor<ui32>
    %1831 = stablehlo.broadcast_in_dim %1830, dims = [] : (tensor<ui32>) -> tensor<8192xui32>
    %1832 = stablehlo.shift_left %1828, %1831 : tensor<8192xui32>
    %1833 = stablehlo.constant dense<17> : tensor<ui32>
    %1834 = stablehlo.broadcast_in_dim %1833, dims = [] : (tensor<ui32>) -> tensor<8192xui32>
    %1835 = stablehlo.shift_right_logical %1828, %1834 : tensor<8192xui32>
    %1836 = stablehlo.or %1832, %1835 : tensor<8192xui32>
    %1837 = stablehlo.xor %1829, %1836 : tensor<8192xui32>
    %1838 = stablehlo.add %1829, %1837 : tensor<8192xui32>
    %1839 = stablehlo.constant dense<26> : tensor<ui32>
    %1840 = stablehlo.broadcast_in_dim %1839, dims = [] : (tensor<ui32>) -> tensor<8192xui32>
    %1841 = stablehlo.shift_left %1837, %1840 : tensor<8192xui32>
    %1842 = stablehlo.constant dense<6> : tensor<ui32>
    %1843 = stablehlo.broadcast_in_dim %1842, dims = [] : (tensor<ui32>) -> tensor<8192xui32>
    %1844 = stablehlo.shift_right_logical %1837, %1843 : tensor<8192xui32>
    %1845 = stablehlo.or %1841, %1844 : tensor<8192xui32>
    %1846 = stablehlo.xor %1838, %1845 : tensor<8192xui32>
    %1847 = stablehlo.add %1838, %1846 : tensor<8192xui32>
    %1848 = stablehlo.constant dense<6> : tensor<ui32>
    %1849 = stablehlo.broadcast_in_dim %1848, dims = [] : (tensor<ui32>) -> tensor<8192xui32>
    %1850 = stablehlo.shift_left %1846, %1849 : tensor<8192xui32>
    %1851 = stablehlo.constant dense<26> : tensor<ui32>
    %1852 = stablehlo.broadcast_in_dim %1851, dims = [] : (tensor<ui32>) -> tensor<8192xui32>
    %1853 = stablehlo.shift_right_logical %1846, %1852 : tensor<8192xui32>
    %1854 = stablehlo.or %1850, %1853 : tensor<8192xui32>
    %1855 = stablehlo.xor %1847, %1854 : tensor<8192xui32>
    %1856 = stablehlo.broadcast_in_dim %1722, dims = [] : (tensor<ui32>) -> tensor<8192xui32>
    %1857 = stablehlo.add %1847, %1856 : tensor<8192xui32>
    %1858 = stablehlo.broadcast_in_dim %1724, dims = [] : (tensor<ui32>) -> tensor<8192xui32>
    %1859 = stablehlo.add %1855, %1858 : tensor<8192xui32>
    %1860 = stablehlo.constant dense<3> : tensor<ui32>
    %1861 = stablehlo.broadcast_in_dim %1860, dims = [] : (tensor<ui32>) -> tensor<8192xui32>
    %1862 = stablehlo.add %1859, %1861 : tensor<8192xui32>
    %1863 = stablehlo.add %1857, %1862 : tensor<8192xui32>
    %1864 = stablehlo.constant dense<17> : tensor<ui32>
    %1865 = stablehlo.broadcast_in_dim %1864, dims = [] : (tensor<ui32>) -> tensor<8192xui32>
    %1866 = stablehlo.shift_left %1862, %1865 : tensor<8192xui32>
    %1867 = stablehlo.constant dense<15> : tensor<ui32>
    %1868 = stablehlo.broadcast_in_dim %1867, dims = [] : (tensor<ui32>) -> tensor<8192xui32>
    %1869 = stablehlo.shift_right_logical %1862, %1868 : tensor<8192xui32>
    %1870 = stablehlo.or %1866, %1869 : tensor<8192xui32>
    %1871 = stablehlo.xor %1863, %1870 : tensor<8192xui32>
    %1872 = stablehlo.add %1863, %1871 : tensor<8192xui32>
    %1873 = stablehlo.constant dense<29> : tensor<ui32>
    %1874 = stablehlo.broadcast_in_dim %1873, dims = [] : (tensor<ui32>) -> tensor<8192xui32>
    %1875 = stablehlo.shift_left %1871, %1874 : tensor<8192xui32>
    %1876 = stablehlo.constant dense<3> : tensor<ui32>
    %1877 = stablehlo.broadcast_in_dim %1876, dims = [] : (tensor<ui32>) -> tensor<8192xui32>
    %1878 = stablehlo.shift_right_logical %1871, %1877 : tensor<8192xui32>
    %1879 = stablehlo.or %1875, %1878 : tensor<8192xui32>
    %1880 = stablehlo.xor %1872, %1879 : tensor<8192xui32>
    %1881 = stablehlo.add %1872, %1880 : tensor<8192xui32>
    %1882 = stablehlo.constant dense<16> : tensor<ui32>
    %1883 = stablehlo.broadcast_in_dim %1882, dims = [] : (tensor<ui32>) -> tensor<8192xui32>
    %1884 = stablehlo.shift_left %1880, %1883 : tensor<8192xui32>
    %1885 = stablehlo.constant dense<16> : tensor<ui32>
    %1886 = stablehlo.broadcast_in_dim %1885, dims = [] : (tensor<ui32>) -> tensor<8192xui32>
    %1887 = stablehlo.shift_right_logical %1880, %1886 : tensor<8192xui32>
    %1888 = stablehlo.or %1884, %1887 : tensor<8192xui32>
    %1889 = stablehlo.xor %1881, %1888 : tensor<8192xui32>
    %1890 = stablehlo.add %1881, %1889 : tensor<8192xui32>
    %1891 = stablehlo.constant dense<24> : tensor<ui32>
    %1892 = stablehlo.broadcast_in_dim %1891, dims = [] : (tensor<ui32>) -> tensor<8192xui32>
    %1893 = stablehlo.shift_left %1889, %1892 : tensor<8192xui32>
    %1894 = stablehlo.constant dense<8> : tensor<ui32>
    %1895 = stablehlo.broadcast_in_dim %1894, dims = [] : (tensor<ui32>) -> tensor<8192xui32>
    %1896 = stablehlo.shift_right_logical %1889, %1895 : tensor<8192xui32>
    %1897 = stablehlo.or %1893, %1896 : tensor<8192xui32>
    %1898 = stablehlo.xor %1890, %1897 : tensor<8192xui32>
    %1899 = stablehlo.broadcast_in_dim %1724, dims = [] : (tensor<ui32>) -> tensor<8192xui32>
    %1900 = stablehlo.add %1890, %1899 : tensor<8192xui32>
    %1901 = stablehlo.broadcast_in_dim %1729, dims = [] : (tensor<ui32>) -> tensor<8192xui32>
    %1902 = stablehlo.add %1898, %1901 : tensor<8192xui32>
    %1903 = stablehlo.constant dense<4> : tensor<ui32>
    %1904 = stablehlo.broadcast_in_dim %1903, dims = [] : (tensor<ui32>) -> tensor<8192xui32>
    %1905 = stablehlo.add %1902, %1904 : tensor<8192xui32>
    %1906 = stablehlo.add %1900, %1905 : tensor<8192xui32>
    %1907 = stablehlo.constant dense<13> : tensor<ui32>
    %1908 = stablehlo.broadcast_in_dim %1907, dims = [] : (tensor<ui32>) -> tensor<8192xui32>
    %1909 = stablehlo.shift_left %1905, %1908 : tensor<8192xui32>
    %1910 = stablehlo.constant dense<19> : tensor<ui32>
    %1911 = stablehlo.broadcast_in_dim %1910, dims = [] : (tensor<ui32>) -> tensor<8192xui32>
    %1912 = stablehlo.shift_right_logical %1905, %1911 : tensor<8192xui32>
    %1913 = stablehlo.or %1909, %1912 : tensor<8192xui32>
    %1914 = stablehlo.xor %1906, %1913 : tensor<8192xui32>
    %1915 = stablehlo.add %1906, %1914 : tensor<8192xui32>
    %1916 = stablehlo.constant dense<15> : tensor<ui32>
    %1917 = stablehlo.broadcast_in_dim %1916, dims = [] : (tensor<ui32>) -> tensor<8192xui32>
    %1918 = stablehlo.shift_left %1914, %1917 : tensor<8192xui32>
    %1919 = stablehlo.constant dense<17> : tensor<ui32>
    %1920 = stablehlo.broadcast_in_dim %1919, dims = [] : (tensor<ui32>) -> tensor<8192xui32>
    %1921 = stablehlo.shift_right_logical %1914, %1920 : tensor<8192xui32>
    %1922 = stablehlo.or %1918, %1921 : tensor<8192xui32>
    %1923 = stablehlo.xor %1915, %1922 : tensor<8192xui32>
    %1924 = stablehlo.add %1915, %1923 : tensor<8192xui32>
    %1925 = stablehlo.constant dense<26> : tensor<ui32>
    %1926 = stablehlo.broadcast_in_dim %1925, dims = [] : (tensor<ui32>) -> tensor<8192xui32>
    %1927 = stablehlo.shift_left %1923, %1926 : tensor<8192xui32>
    %1928 = stablehlo.constant dense<6> : tensor<ui32>
    %1929 = stablehlo.broadcast_in_dim %1928, dims = [] : (tensor<ui32>) -> tensor<8192xui32>
    %1930 = stablehlo.shift_right_logical %1923, %1929 : tensor<8192xui32>
    %1931 = stablehlo.or %1927, %1930 : tensor<8192xui32>
    %1932 = stablehlo.xor %1924, %1931 : tensor<8192xui32>
    %1933 = stablehlo.add %1924, %1932 : tensor<8192xui32>
    %1934 = stablehlo.constant dense<6> : tensor<ui32>
    %1935 = stablehlo.broadcast_in_dim %1934, dims = [] : (tensor<ui32>) -> tensor<8192xui32>
    %1936 = stablehlo.shift_left %1932, %1935 : tensor<8192xui32>
    %1937 = stablehlo.constant dense<26> : tensor<ui32>
    %1938 = stablehlo.broadcast_in_dim %1937, dims = [] : (tensor<ui32>) -> tensor<8192xui32>
    %1939 = stablehlo.shift_right_logical %1932, %1938 : tensor<8192xui32>
    %1940 = stablehlo.or %1936, %1939 : tensor<8192xui32>
    %1941 = stablehlo.xor %1933, %1940 : tensor<8192xui32>
    %1942 = stablehlo.broadcast_in_dim %1729, dims = [] : (tensor<ui32>) -> tensor<8192xui32>
    %1943 = stablehlo.add %1933, %1942 : tensor<8192xui32>
    %1944 = stablehlo.broadcast_in_dim %1722, dims = [] : (tensor<ui32>) -> tensor<8192xui32>
    %1945 = stablehlo.add %1941, %1944 : tensor<8192xui32>
    %1946 = stablehlo.constant dense<5> : tensor<ui32>
    %1947 = stablehlo.broadcast_in_dim %1946, dims = [] : (tensor<ui32>) -> tensor<8192xui32>
    %1948 = stablehlo.add %1945, %1947 : tensor<8192xui32>
    %1949 = stablehlo.concatenate %1943, %1948, dim = 0 : (tensor<8192xui32>, tensor<8192xui32>) -> tensor<16384xui32>
    %1950 = stablehlo.reshape %1949 : (tensor<16384xui32>) -> tensor<128x128xui32>
    %1951 = stablehlo.constant dense<9> : tensor<ui32>
    %1952 = stablehlo.broadcast_in_dim %1951, dims = [] : (tensor<ui32>) -> tensor<128x128xui32>
    %1953 = stablehlo.shift_right_logical %1950, %1952 : tensor<128x128xui32>
    %1954 = stablehlo.constant dense<1065353216> : tensor<ui32>
    %1955 = stablehlo.broadcast_in_dim %1954, dims = [] : (tensor<ui32>) -> tensor<128x128xui32>
    %1956 = stablehlo.or %1953, %1955 : tensor<128x128xui32>
    %1957 = stablehlo.bitcast_convert %1956 : (tensor<128x128xui32>) -> tensor<128x128xf32>
    %1958 = stablehlo.constant dense<1.000000e+00> : tensor<f32>
    %1959 = stablehlo.broadcast_in_dim %1958, dims = [] : (tensor<f32>) -> tensor<128x128xf32>
    %1960 = stablehlo.subtract %1957, %1959 : tensor<128x128xf32>
    %1961 = stablehlo.subtract %1719, %1718 : tensor<1x1xf32>
    %1962 = stablehlo.broadcast_in_dim %1961, dims = [0, 1] : (tensor<1x1xf32>) -> tensor<128x128xf32>
    %1963 = stablehlo.multiply %1960, %1962 : tensor<128x128xf32>
    %1964 = stablehlo.broadcast_in_dim %1718, dims = [0, 1] : (tensor<1x1xf32>) -> tensor<128x128xf32>
    %1965 = stablehlo.add %1963, %1964 : tensor<128x128xf32>
    %1966 = stablehlo.broadcast_in_dim %1718, dims = [0, 1] : (tensor<1x1xf32>) -> tensor<128x128xf32>
    %1967 = stablehlo.maximum %1966, %1965 : tensor<128x128xf32>
    %1968 = call @jit__initialize_optimizer$erf_inv_1(%1967) : (tensor<128x128xf32>) -> tensor<128x128xf32>
    %1969 = stablehlo.constant dense<1.41421354> : tensor<f32>
    %1970 = stablehlo.broadcast_in_dim %1969, dims = [] : (tensor<f32>) -> tensor<128x128xf32>
    %1971 = stablehlo.multiply %1970, %1968 : tensor<128x128xf32>
    %1972 = stablehlo.constant dense<-2.000000e+00> : tensor<f32>
    %1973 = stablehlo.constant dense<0x7F800000> : tensor<f32>
    %1974 = chlo.next_after %1972, %1973 : tensor<f32>, tensor<f32> -> tensor<f32>
    %1975 = stablehlo.constant dense<2.000000e+00> : tensor<f32>
    %1976 = stablehlo.constant dense<0xFF800000> : tensor<f32>
    %1977 = chlo.next_after %1975, %1976 : tensor<f32>, tensor<f32> -> tensor<f32>
    %1978 = call @jit__initialize_optimizer$clip_2(%1971, %1974, %1977) : (tensor<128x128xf32>, tensor<f32>, tensor<f32>) -> tensor<128x128xf32>
    %1979 = stablehlo.broadcast_in_dim %1709, dims = [] : (tensor<f32>) -> tensor<128x128xf32>
    %1980 = stablehlo.multiply %1978, %1979 : tensor<128x128xf32>
    %1981 = stablehlo.constant dense<-0.99999994> : tensor<f32>
    %1982 = stablehlo.broadcast_in_dim %1981, dims = [] : (tensor<f32>) -> tensor<1xf32>
    %1983 = stablehlo.constant dense<1.000000e+00> : tensor<f32>
    %1984 = stablehlo.broadcast_in_dim %1983, dims = [] : (tensor<f32>) -> tensor<1xf32>
    %1985 = stablehlo.iota dim = 0 : tensor<128xui32>
    %1986 = "stablehlo.slice"(%1705) {limit_indices = dense<1> : tensor<1xi64>, start_indices = dense<0> : tensor<1xi64>, strides = dense<1> : tensor<1xi64>} : (tensor<2xui32>) -> tensor<1xui32>
    %1987 = stablehlo.reshape %1986 : (tensor<1xui32>) -> tensor<ui32>
    %1988 = "stablehlo.slice"(%1705) {limit_indices = dense<2> : tensor<1xi64>, start_indices = dense<1> : tensor<1xi64>, strides = dense<1> : tensor<1xi64>} : (tensor<2xui32>) -> tensor<1xui32>
    %1989 = stablehlo.reshape %1988 : (tensor<1xui32>) -> tensor<ui32>
    %1990 = "stablehlo.slice"(%1985) {limit_indices = dense<64> : tensor<1xi64>, start_indices = dense<0> : tensor<1xi64>, strides = dense<1> : tensor<1xi64>} : (tensor<128xui32>) -> tensor<64xui32>
    %1991 = "stablehlo.slice"(%1985) {limit_indices = dense<128> : tensor<1xi64>, start_indices = dense<64> : tensor<1xi64>, strides = dense<1> : tensor<1xi64>} : (tensor<128xui32>) -> tensor<64xui32>
    %1992 = stablehlo.xor %1987, %1989 : tensor<ui32>
    %1993 = stablehlo.constant dense<466688986> : tensor<ui32>
    %1994 = stablehlo.xor %1992, %1993 : tensor<ui32>
    %1995 = stablehlo.broadcast_in_dim %1987, dims = [] : (tensor<ui32>) -> tensor<64xui32>
    %1996 = stablehlo.add %1990, %1995 : tensor<64xui32>
    %1997 = stablehlo.broadcast_in_dim %1989, dims = [] : (tensor<ui32>) -> tensor<64xui32>
    %1998 = stablehlo.add %1991, %1997 : tensor<64xui32>
    %1999 = stablehlo.add %1996, %1998 : tensor<64xui32>
    %2000 = stablehlo.constant dense<13> : tensor<ui32>
    %2001 = stablehlo.broadcast_in_dim %2000, dims = [] : (tensor<ui32>) -> tensor<64xui32>
    %2002 = stablehlo.shift_left %1998, %2001 : tensor<64xui32>
    %2003 = stablehlo.constant dense<19> : tensor<ui32>
    %2004 = stablehlo.broadcast_in_dim %2003, dims = [] : (tensor<ui32>) -> tensor<64xui32>
    %2005 = stablehlo.shift_right_logical %1998, %2004 : tensor<64xui32>
    %2006 = stablehlo.or %2002, %2005 : tensor<64xui32>
    %2007 = stablehlo.xor %1999, %2006 : tensor<64xui32>
    %2008 = stablehlo.add %1999, %2007 : tensor<64xui32>
    %2009 = stablehlo.constant dense<15> : tensor<ui32>
    %2010 = stablehlo.broadcast_in_dim %2009, dims = [] : (tensor<ui32>) -> tensor<64xui32>
    %2011 = stablehlo.shift_left %2007, %2010 : tensor<64xui32>
    %2012 = stablehlo.constant dense<17> : tensor<ui32>
    %2013 = stablehlo.broadcast_in_dim %2012, dims = [] : (tensor<ui32>) -> tensor<64xui32>
    %2014 = stablehlo.shift_right_logical %2007, %2013 : tensor<64xui32>
    %2015 = stablehlo.or %2011, %2014 : tensor<64xui32>
    %2016 = stablehlo.xor %2008, %2015 : tensor<64xui32>
    %2017 = stablehlo.add %2008, %2016 : tensor<64xui32>
    %2018 = stablehlo.constant dense<26> : tensor<ui32>
    %2019 = stablehlo.broadcast_in_dim %2018, dims = [] : (tensor<ui32>) -> tensor<64xui32>
    %2020 = stablehlo.shift_left %2016, %2019 : tensor<64xui32>
    %2021 = stablehlo.constant dense<6> : tensor<ui32>
    %2022 = stablehlo.broadcast_in_dim %2021, dims = [] : (tensor<ui32>) -> tensor<64xui32>
    %2023 = stablehlo.shift_right_logical %2016, %2022 : tensor<64xui32>
    %2024 = stablehlo.or %2020, %2023 : tensor<64xui32>
    %2025 = stablehlo.xor %2017, %2024 : tensor<64xui32>
    %2026 = stablehlo.add %2017, %2025 : tensor<64xui32>
    %2027 = stablehlo.constant dense<6> : tensor<ui32>
    %2028 = stablehlo.broadcast_in_dim %2027, dims = [] : (tensor<ui32>) -> tensor<64xui32>
    %2029 = stablehlo.shift_left %2025, %2028 : tensor<64xui32>
    %2030 = stablehlo.constant dense<26> : tensor<ui32>
…
    %71 = stablehlo.multiply %70, %66 : tensor<784x128xf32>
    %72 = stablehlo.add %43, %71 : tensor<784x128xf32>
    %73 = stablehlo.multiply %72, %66 : tensor<784x128xf32>
    %74 = stablehlo.add %38, %73 : tensor<784x128xf32>
    %75 = stablehlo.multiply %74, %66 : tensor<784x128xf32>
    %76 = stablehlo.add %33, %75 : tensor<784x128xf32>
    %77 = stablehlo.multiply %76, %66 : tensor<784x128xf32>
    %78 = stablehlo.add %28, %77 : tensor<784x128xf32>
    %79 = stablehlo.multiply %78, %66 : tensor<784x128xf32>
    %80 = stablehlo.add %23, %79 : tensor<784x128xf32>
    %81 = stablehlo.multiply %80, %66 : tensor<784x128xf32>
    %82 = stablehlo.add %18, %81 : tensor<784x128xf32>
    %83 = stablehlo.multiply %82, %arg0 : tensor<784x128xf32>
    %84 = stablehlo.select %3, %6, %83 : tensor<784x128xi1>, tensor<784x128xf32>
    return %84 : tensor<784x128xf32>
  }
  func.func private @jit__initialize_optimizer$clip(%arg0: tensor<784x128xf32>, %arg1: tensor<f32>, %arg2: tensor<f32>) -> tensor<784x128xf32> {
    %0 = stablehlo.broadcast_in_dim %arg1, dims = [] : (tensor<f32>) -> tensor<784x128xf32>
    %1 = stablehlo.maximum %0, %arg0 : tensor<784x128xf32>
    %2 = stablehlo.broadcast_in_dim %arg2, dims = [] : (tensor<f32>) -> tensor<784x128xf32>
    %3 = stablehlo.minimum %2, %1 : tensor<784x128xf32>
    return %3 : tensor<784x128xf32>
  }
  func.func private @jit__initialize_optimizer$erf_inv_0(%arg0: tensor<128xf32>) -> tensor<128xf32> {
    %0 = call @jit__initialize_optimizer$xla_fallback_erf_inv_0(%arg0) : (tensor<128xf32>) -> tensor<128xf32>
    return %0 : tensor<128xf32>
  }
  func.func private @jit__initialize_optimizer$xla_fallback_erf_inv_0(%arg0: tensor<128xf32>) -> tensor<128xf32> {
    %0 = stablehlo.abs %arg0 : tensor<128xf32>
    %1 = stablehlo.constant dense<1.000000e+00> : tensor<f32>
    %2 = stablehlo.constant dense<1.000000e+00> : tensor<128xf32>
    %3 = stablehlo.compare  EQ, %0, %2 : (tensor<128xf32>, tensor<128xf32>) -> tensor<128xi1>
    %4 = stablehlo.constant dense<0x7F800000> : tensor<f32>
    %5 = stablehlo.constant dense<0x7F800000> : tensor<128xf32>
    %6 = stablehlo.multiply %arg0, %5 : tensor<128xf32>
    %7 = stablehlo.negate %arg0 : tensor<128xf32>
    %8 = stablehlo.multiply %7, %arg0 : tensor<128xf32>
    %9 = stablehlo.log_plus_one %8 : tensor<128xf32>
    %10 = stablehlo.negate %9 : tensor<128xf32>
    %11 = stablehlo.constant dense<5.000000e+00> : tensor<f32>
    %12 = stablehlo.constant dense<5.000000e+00> : tensor<128xf32>
    %13 = stablehlo.compare  LT, %10, %12 : (tensor<128xf32>, tensor<128xf32>) -> tensor<128xi1>
    %14 = stablehlo.constant dense<1.50140941> : tensor<f32>
    %15 = stablehlo.constant dense<1.50140941> : tensor<128xf32>
    %16 = stablehlo.constant dense<2.83297682> : tensor<f32>
    %17 = stablehlo.constant dense<2.83297682> : tensor<128xf32>
    %18 = stablehlo.select %13, %15, %17 : tensor<128xi1>, tensor<128xf32>
    %19 = stablehlo.constant dense<0.246640727> : tensor<f32>
    %20 = stablehlo.constant dense<0.246640727> : tensor<128xf32>
    %21 = stablehlo.constant dense<1.00167406> : tensor<f32>
    %22 = stablehlo.constant dense<1.00167406> : tensor<128xf32>
    %23 = stablehlo.select %13, %20, %22 : tensor<128xi1>, tensor<128xf32>
    %24 = stablehlo.constant dense<-0.00417768164> : tensor<f32>
    %25 = stablehlo.constant dense<-0.00417768164> : tensor<128xf32>
    %26 = stablehlo.constant dense<0.00943887047> : tensor<f32>
    %27 = stablehlo.constant dense<0.00943887047> : tensor<128xf32>
    %28 = stablehlo.select %13, %25, %27 : tensor<128xi1>, tensor<128xf32>
    %29 = stablehlo.constant dense<-0.00125372503> : tensor<f32>
    %30 = stablehlo.constant dense<-0.00125372503> : tensor<128xf32>
    %31 = stablehlo.constant dense<-0.0076224613> : tensor<f32>
    %32 = stablehlo.constant dense<-0.0076224613> : tensor<128xf32>
    %33 = stablehlo.select %13, %30, %32 : tensor<128xi1>, tensor<128xf32>
    %34 = stablehlo.constant dense<2.1858087E-4> : tensor<f32>
    %35 = stablehlo.constant dense<2.1858087E-4> : tensor<128xf32>
    %36 = stablehlo.constant dense<0.00573950773> : tensor<f32>
    %37 = stablehlo.constant dense<0.00573950773> : tensor<128xf32>
    %38 = stablehlo.select %13, %35, %37 : tensor<128xi1>, tensor<128xf32>
    %39 = stablehlo.constant dense<-4.39150654E-6> : tensor<f32>
    %40 = stablehlo.constant dense<-4.39150654E-6> : tensor<128xf32>
    %41 = stablehlo.constant dense<-0.00367342844> : tensor<f32>
    %42 = stablehlo.constant dense<-0.00367342844> : tensor<128xf32>
    %43 = stablehlo.select %13, %40, %42 : tensor<128xi1>, tensor<128xf32>
    %44 = stablehlo.constant dense<-3.5233877E-6> : tensor<f32>
    %45 = stablehlo.constant dense<-3.5233877E-6> : tensor<128xf32>
    %46 = stablehlo.constant dense<0.00134934322> : tensor<f32>
    %47 = stablehlo.constant dense<0.00134934322> : tensor<128xf32>
    %48 = stablehlo.select %13, %45, %47 : tensor<128xi1>, tensor<128xf32>
    %49 = stablehlo.constant dense<3.43273939E-7> : tensor<f32>
    %50 = stablehlo.constant dense<3.43273939E-7> : tensor<128xf32>
    %51 = stablehlo.constant dense<1.00950558E-4> : tensor<f32>
    %52 = stablehlo.constant dense<1.00950558E-4> : tensor<128xf32>
    %53 = stablehlo.select %13, %50, %52 : tensor<128xi1>, tensor<128xf32>
    %54 = stablehlo.constant dense<2.81022636E-8> : tensor<f32>
    %55 = stablehlo.constant dense<2.81022636E-8> : tensor<128xf32>
    %56 = stablehlo.constant dense<-2.00214257E-4> : tensor<f32>
    %57 = stablehlo.constant dense<-2.00214257E-4> : tensor<128xf32>
    %58 = stablehlo.select %13, %55, %57 : tensor<128xi1>, tensor<128xf32>
    %59 = stablehlo.constant dense<2.500000e+00> : tensor<f32>
    %60 = stablehlo.constant dense<2.500000e+00> : tensor<128xf32>
    %61 = stablehlo.subtract %10, %60 : tensor<128xf32>
    %62 = stablehlo.sqrt %10 : tensor<128xf32>
    %63 = stablehlo.constant dense<3.000000e+00> : tensor<f32>
    %64 = stablehlo.constant dense<3.000000e+00> : tensor<128xf32>
    %65 = stablehlo.subtract %62, %64 : tensor<128xf32>
    %66 = stablehlo.select %13, %61, %65 : tensor<128xi1>, tensor<128xf32>
    %67 = stablehlo.multiply %58, %66 : tensor<128xf32>
    %68 = stablehlo.add %53, %67 : tensor<128xf32>
    %69 = stablehlo.multiply %68, %66 : tensor<128xf32>
    %70 = stablehlo.add %48, %69 : tensor<128xf32>
    %71 = stablehlo.multiply %70, %66 : tensor<128xf32>
    %72 = stablehlo.add %43, %71 : tensor<128xf32>
    %73 = stablehlo.multiply %72, %66 : tensor<128xf32>
    %74 = stablehlo.add %38, %73 : tensor<128xf32>
    %75 = stablehlo.multiply %74, %66 : tensor<128xf32>
    %76 = stablehlo.add %33, %75 : tensor<128xf32>
    %77 = stablehlo.multiply %76, %66 : tensor<128xf32>
    %78 = stablehlo.add %28, %77 : tensor<128xf32>
    %79 = stablehlo.multiply %78, %66 : tensor<128xf32>
    %80 = stablehlo.add %23, %79 : tensor<128xf32>
    %81 = stablehlo.multiply %80, %66 : tensor<128xf32>
    %82 = stablehlo.add %18, %81 : tensor<128xf32>
    %83 = stablehlo.multiply %82, %arg0 : tensor<128xf32>
    %84 = stablehlo.select %3, %6, %83 : tensor<128xi1>, tensor<128xf32>
    return %84 : tensor<128xf32>
  }
  func.func private @jit__initialize_optimizer$erf_inv_1(%arg0: tensor<128x128xf32>) -> tensor<128x128xf32> {
    %0 = call @jit__initialize_optimizer$xla_fallback_erf_inv_1(%arg0) : (tensor<128x128xf32>) -> tensor<128x128xf32>
    return %0 : tensor<128x128xf32>
  }
  func.func private @jit__initialize_optimizer$xla_fallback_erf_inv_1(%arg0: tensor<128x128xf32>) -> tensor<128x128xf32> {
    %0 = stablehlo.abs %arg0 : tensor<128x128xf32>
    %1 = stablehlo.constant dense<1.000000e+00> : tensor<f32>
    %2 = stablehlo.constant dense<1.000000e+00> : tensor<128x128xf32>
    %3 = stablehlo.compare  EQ, %0, %2 : (tensor<128x128xf32>, tensor<128x128xf32>) -> tensor<128x128xi1>
    %4 = stablehlo.constant dense<0x7F800000> : tensor<f32>
    %5 = stablehlo.constant dense<0x7F800000> : tensor<128x128xf32>
    %6 = stablehlo.multiply %arg0, %5 : tensor<128x128xf32>
    %7 = stablehlo.negate %arg0 : tensor<128x128xf32>
    %8 = stablehlo.multiply %7, %arg0 : tensor<128x128xf32>
    %9 = stablehlo.log_plus_one %8 : tensor<128x128xf32>
    %10 = stablehlo.negate %9 : tensor<128x128xf32>
    %11 = stablehlo.constant dense<5.000000e+00> : tensor<f32>
    %12 = stablehlo.constant dense<5.000000e+00> : tensor<128x128xf32>
    %13 = stablehlo.compare  LT, %10, %12 : (tensor<128x128xf32>, tensor<128x128xf32>) -> tensor<128x128xi1>
    %14 = stablehlo.constant dense<1.50140941> : tensor<f32>
    %15 = stablehlo.constant dense<1.50140941> : tensor<128x128xf32>
    %16 = stablehlo.constant dense<2.83297682> : tensor<f32>
    %17 = stablehlo.constant dense<2.83297682> : tensor<128x128xf32>
    %18 = stablehlo.select %13, %15, %17 : tensor<128x128xi1>, tensor<128x128xf32>
    %19 = stablehlo.constant dense<0.246640727> : tensor<f32>
    %20 = stablehlo.constant dense<0.246640727> : tensor<128x128xf32>
    %21 = stablehlo.constant dense<1.00167406> : tensor<f32>
    %22 = stablehlo.constant dense<1.00167406> : tensor<128x128xf32>
    %23 = stablehlo.select %13, %20, %22 : tensor<128x128xi1>, tensor<128x128xf32>
    %24 = stablehlo.constant dense<-0.00417768164> : tensor<f32>
    %25 = stablehlo.constant dense<-0.00417768164> : tensor<128x128xf32>
    %26 = stablehlo.constant dense<0.00943887047> : tensor<f32>
    %27 = stablehlo.constant dense<0.00943887047> : tensor<128x128xf32>
    %28 = stablehlo.select %13, %25, %27 : tensor<128x128xi1>, tensor<128x128xf32>
    %29 = stablehlo.constant dense<-0.00125372503> : tensor<f32>
    %30 = stablehlo.constant dense<-0.00125372503> : tensor<128x128xf32>
    %31 = stablehlo.constant dense<-0.0076224613> : tensor<f32>
    %32 = stablehlo.constant dense<-0.0076224613> : tensor<128x128xf32>
    %33 = stablehlo.select %13, %30, %32 : tensor<128x128xi1>, tensor<128x128xf32>
    %34 = stablehlo.constant dense<2.1858087E-4> : tensor<f32>
    %35 = stablehlo.constant dense<2.1858087E-4> : tensor<128x128xf32>
    %36 = stablehlo.constant dense<0.00573950773> : tensor<f32>
    %37 = stablehlo.constant dense<0.00573950773> : tensor<128x128xf32>
    %38 = stablehlo.select %13, %35, %37 : tensor<128x128xi1>, tensor<128x128xf32>
    %39 = stablehlo.constant dense<-4.39150654E-6> : tensor<f32>
    %40 = stablehlo.constant dense<-4.39150654E-6> : tensor<128x128xf32>
    %41 = stablehlo.constant dense<-0.00367342844> : tensor<f32>
    %42 = stablehlo.constant dense<-0.00367342844> : tensor<128x128xf32>
    %43 = stablehlo.select %13, %40, %42 : tensor<128x128xi1>, tensor<128x128xf32>
    %44 = stablehlo.constant dense<-3.5233877E-6> : tensor<f32>
    %45 = stablehlo.constant dense<-3.5233877E-6> : tensor<128x128xf32>
    %46 = stablehlo.constant dense<0.00134934322> : tensor<f32>
    %47 = stablehlo.constant dense<0.00134934322> : tensor<128x128xf32>
    %48 = stablehlo.select %13, %45, %47 : tensor<128x128xi1>, tensor<128x128xf32>
    %49 = stablehlo.constant dense<3.43273939E-7> : tensor<f32>
    %50 = stablehlo.constant dense<3.43273939E-7> : tensor<128x128xf32>
    %51 = stablehlo.constant dense<1.00950558E-4> : tensor<f32>
    %52 = stablehlo.constant dense<1.00950558E-4> : tensor<128x128xf32>
    %53 = stablehlo.select %13, %50, %52 : tensor<128x128xi1>, tensor<128x128xf32>
    %54 = stablehlo.constant dense<2.81022636E-8> : tensor<f32>
    %55 = stablehlo.constant dense<2.81022636E-8> : tensor<128x128xf32>
    %56 = stablehlo.constant dense<-2.00214257E-4> : tensor<f32>
    %57 = stablehlo.constant dense<-2.00214257E-4> : tensor<128x128xf32>
    %58 = stablehlo.select %13, %55, %57 : tensor<128x128xi1>, tensor<128x128xf32>
    %59 = stablehlo.constant dense<2.500000e+00> : tensor<f32>
    %60 = stablehlo.constant dense<2.500000e+00> : tensor<128x128xf32>
    %61 = stablehlo.subtract %10, %60 : tensor<128x128xf32>
    %62 = stablehlo.sqrt %10 : tensor<128x128xf32>
    %63 = stablehlo.constant dense<3.000000e+00> : tensor<f32>
    %64 = stablehlo.constant dense<3.000000e+00> : tensor<128x128xf32>
    %65 = stablehlo.subtract %62, %64 : tensor<128x128xf32>
    %66 = stablehlo.select %13, %61, %65 : tensor<128x128xi1>, tensor<128x128xf32>
    %67 = stablehlo.multiply %58, %66 : tensor<128x128xf32>
    %68 = stablehlo.add %53, %67 : tensor<128x128xf32>
    %69 = stablehlo.multiply %68, %66 : tensor<128x128xf32>
    %70 = stablehlo.add %48, %69 : tensor<128x128xf32>
    %71 = stablehlo.multiply %70, %66 : tensor<128x128xf32>
    %72 = stablehlo.add %43, %71 : tensor<128x128xf32>
    %73 = stablehlo.multiply %72, %66 : tensor<128x128xf32>
    %74 = stablehlo.add %38, %73 : tensor<128x128xf32>
    %75 = stablehlo.multiply %74, %66 : tensor<128x128xf32>
    %76 = stablehlo.add %33, %75 : tensor<128x128xf32>
    %77 = stablehlo.multiply %76, %66 : tensor<128x128xf32>
    %78 = stablehlo.add %28, %77 : tensor<128x128xf32>
    %79 = stablehlo.multiply %78, %66 : tensor<128x128xf32>
    %80 = stablehlo.add %23, %79 : tensor<128x128xf32>
    %81 = stablehlo.multiply %80, %66 : tensor<128x128xf32>
    %82 = stablehlo.add %18, %81 : tensor<128x128xf32>
    %83 = stablehlo.multiply %82, %arg0 : tensor<128x128xf32>
    %84 = stablehlo.select %3, %6, %83 : tensor<128x128xi1>, tensor<128x128xf32>
    return %84 : tensor<128x128xf32>
  }
  func.func private @jit__initialize_optimizer$clip_2(%arg0: tensor<128x128xf32>, %arg1: tensor<f32>, %arg2: tensor<f32>) -> tensor<128x128xf32> {
    %0 = stablehlo.broadcast_in_dim %arg1, dims = [] : (tensor<f32>) -> tensor<128x128xf32>
    %1 = stablehlo.maximum %0, %arg0 : tensor<128x128xf32>
    %2 = stablehlo.broadcast_in_dim %arg2, dims = [] : (tensor<f32>) -> tensor<128x128xf32>
    %3 = stablehlo.minimum %2, %1 : tensor<128x128xf32>
    return %3 : tensor<128x128xf32>
  }
  func.func private @jit__initialize_optimizer$erf_inv_3(%arg0: tensor<128x10xf32>) -> tensor<128x10xf32> {
    %0 = call @jit__initialize_optimizer$xla_fallback_erf_inv_2(%arg0) : (tensor<128x10xf32>) -> tensor<128x10xf32>
    return %0 : tensor<128x10xf32>
  }
  func.func private @jit__initialize_optimizer$xla_fallback_erf_inv_2(%arg0: tensor<128x10xf32>) -> tensor<128x10xf32> {
    %0 = stablehlo.abs %arg0 : tensor<128x10xf32>
    %1 = stablehlo.constant dense<1.000000e+00> : tensor<f32>
    %2 = stablehlo.constant dense<1.000000e+00> : tensor<128x10xf32>
    %3 = stablehlo.compare  EQ, %0, %2 : (tensor<128x10xf32>, tensor<128x10xf32>) -> tensor<128x10xi1>
    %4 = stablehlo.constant dense<0x7F800000> : tensor<f32>
    %5 = stablehlo.constant dense<0x7F800000> : tensor<128x10xf32>
    %6 = stablehlo.multiply %arg0, %5 : tensor<128x10xf32>
    %7 = stablehlo.negate %arg0 : tensor<128x10xf32>
    %8 = stablehlo.multiply %7, %arg0 : tensor<128x10xf32>
    %9 = stablehlo.log_plus_one %8 : tensor<128x10xf32>
    %10 = stablehlo.negate %9 : tensor<128x10xf32>
    %11 = stablehlo.constant dense<5.000000e+00> : tensor<f32>
    %12 = stablehlo.constant dense<5.000000e+00> : tensor<128x10xf32>
    %13 = stablehlo.compare  LT, %10, %12 : (tensor<128x10xf32>, tensor<128x10xf32>) -> tensor<128x10xi1>
    %14 = stablehlo.constant dense<1.50140941> : tensor<f32>
    %15 = stablehlo.constant dense<1.50140941> : tensor<128x10xf32>
    %16 = stablehlo.constant dense<2.83297682> : tensor<f32>
    %17 = stablehlo.constant dense<2.83297682> : tensor<128x10xf32>
    %18 = stablehlo.select %13, %15, %17 : tensor<128x10xi1>, tensor<128x10xf32>
    %19 = stablehlo.constant dense<0.246640727> : tensor<f32>
    %20 = stablehlo.constant dense<0.246640727> : tensor<128x10xf32>
    %21 = stablehlo.constant dense<1.00167406> : tensor<f32>
    %22 = stablehlo.constant dense<1.00167406> : tensor<128x10xf32>
    %23 = stablehlo.select %13, %20, %22 : tensor<128x10xi1>, tensor<128x10xf32>
    %24 = stablehlo.constant dense<-0.00417768164> : tensor<f32>
    %25 = stablehlo.constant dense<-0.00417768164> : tensor<128x10xf32>
    %26 = stablehlo.constant dense<0.00943887047> : tensor<f32>
    %27 = stablehlo.constant dense<0.00943887047> : tensor<128x10xf32>
    %28 = stablehlo.select %13, %25, %27 : tensor<128x10xi1>, tensor<128x10xf32>
    %29 = stablehlo.constant dense<-0.00125372503> : tensor<f32>
    %30 = stablehlo.constant dense<-0.00125372503> : tensor<128x10xf32>
    %31 = stablehlo.constant dense<-0.0076224613> : tensor<f32>
    %32 = stablehlo.constant dense<-0.0076224613> : tensor<128x10xf32>
    %33 = stablehlo.select %13, %30, %32 : tensor<128x10xi1>, tensor<128x10xf32>
    %34 = stablehlo.constant dense<2.1858087E-4> : tensor<f32>
    %35 = stablehlo.constant dense<2.1858087E-4> : tensor<128x10xf32>
    %36 = stablehlo.constant dense<0.00573950773> : tensor<f32>
    %37 = stablehlo.constant dense<0.00573950773> : tensor<128x10xf32>
    %38 = stablehlo.select %13, %35, %37 : tensor<128x10xi1>, tensor<128x10xf32>
    %39 = stablehlo.constant dense<-4.39150654E-6> : tensor<f32>
    %40 = stablehlo.constant dense<-4.39150654E-6> : tensor<128x10xf32>
    %41 = stablehlo.constant dense<-0.00367342844> : tensor<f32>
    %42 = stablehlo.constant dense<-0.00367342844> : tensor<128x10xf32>
    %43 = stablehlo.select %13, %40, %42 : tensor<128x10xi1>, tensor<128x10xf32>
    %44 = stablehlo.constant dense<-3.5233877E-6> : tensor<f32>
    %45 = stablehlo.constant dense<-3.5233877E-6> : tensor<128x10xf32>
    %46 = stablehlo.constant dense<0.00134934322> : tensor<f32>
    %47 = stablehlo.constant dense<0.00134934322> : tensor<128x10xf32>
    %48 = stablehlo.select %13, %45, %47 : tensor<128x10xi1>, tensor<128x10xf32>
    %49 = stablehlo.constant dense<3.43273939E-7> : tensor<f32>
    %50 = stablehlo.constant dense<3.43273939E-7> : tensor<128x10xf32>
    %51 = stablehlo.constant dense<1.00950558E-4> : tensor<f32>
    %52 = stablehlo.constant dense<1.00950558E-4> : tensor<128x10xf32>
    %53 = stablehlo.select %13, %50, %52 : tensor<128x10xi1>, tensor<128x10xf32>
    %54 = stablehlo.constant dense<2.81022636E-8> : tensor<f32>
    %55 = stablehlo.constant dense<2.81022636E-8> : tensor<128x10xf32>
    %56 = stablehlo.constant dense<-2.00214257E-4> : tensor<f32>
    %57 = stablehlo.constant dense<-2.00214257E-4> : tensor<128x10xf32>
    %58 = stablehlo.select %13, %55, %57 : tensor<128x10xi1>, tensor<128x10xf32>
    %59 = stablehlo.constant dense<2.500000e+00> : tensor<f32>
    %60 = stablehlo.constant dense<2.500000e+00> : tensor<128x10xf32>
    %61 = stablehlo.subtract %10, %60 : tensor<128x10xf32>
    %62 = stablehlo.sqrt %10 : tensor<128x10xf32>
    %63 = stablehlo.constant dense<3.000000e+00> : tensor<f32>
    %64 = stablehlo.constant dense<3.000000e+00> : tensor<128x10xf32>
    %65 = stablehlo.subtract %62, %64 : tensor<128x10xf32>
    %66 = stablehlo.select %13, %61, %65 : tensor<128x10xi1>, tensor<128x10xf32>
    %67 = stablehlo.multiply %58, %66 : tensor<128x10xf32>
    %68 = stablehlo.add %53, %67 : tensor<128x10xf32>
    %69 = stablehlo.multiply %68, %66 : tensor<128x10xf32>
    %70 = stablehlo.add %48, %69 : tensor<128x10xf32>
    %71 = stablehlo.multiply %70, %66 : tensor<128x10xf32>
    %72 = stablehlo.add %43, %71 : tensor<128x10xf32>
    %73 = stablehlo.multiply %72, %66 : tensor<128x10xf32>
    %74 = stablehlo.add %38, %73 : tensor<128x10xf32>
    %75 = stablehlo.multiply %74, %66 : tensor<128x10xf32>
    %76 = stablehlo.add %33, %75 : tensor<128x10xf32>
    %77 = stablehlo.multiply %76, %66 : tensor<128x10xf32>
    %78 = stablehlo.add %28, %77 : tensor<128x10xf32>
    %79 = stablehlo.multiply %78, %66 : tensor<128x10xf32>
    %80 = stablehlo.add %23, %79 : tensor<128x10xf32>
    %81 = stablehlo.multiply %80, %66 : tensor<128x10xf32>
    %82 = stablehlo.add %18, %81 : tensor<128x10xf32>
    %83 = stablehlo.multiply %82, %arg0 : tensor<128x10xf32>
    %84 = stablehlo.select %3, %6, %83 : tensor<128x10xi1>, tensor<128x10xf32>
    return %84 : tensor<128x10xf32>
  }
  func.func private @jit__initialize_optimizer$clip_4(%arg0: tensor<128x10xf32>, %arg1: tensor<f32>, %arg2: tensor<f32>) -> tensor<128x10xf32> {
    %0 = stablehlo.broadcast_in_dim %arg1, dims = [] : (tensor<f32>) -> tensor<128x10xf32>
    %1 = stablehlo.maximum %0, %arg0 : tensor<128x10xf32>
    %2 = stablehlo.broadcast_in_dim %arg2, dims = [] : (tensor<f32>) -> tensor<128x10xf32>
    %3 = stablehlo.minimum %2, %1 : tensor<128x10xf32>
    return %3 : tensor<128x10xf32>
  }
  func.func private @jit__initialize_optimizer$erf_inv_5(%arg0: tensor<10xf32>) -> tensor<10xf32> {
    %0 = call @jit__initialize_optimizer$xla_fallback_erf_inv_3(%arg0) : (tensor<10xf32>) -> tensor<10xf32>
    return %0 : tensor<10xf32>
  }
  func.func private @jit__initialize_optimizer$xla_fallback_erf_inv_3(%arg0: tensor<10xf32>) -> tensor<10xf32> {
    %0 = stablehlo.abs %arg0 : tensor<10xf32>
    %1 = stablehlo.constant dense<1.000000e+00> : tensor<f32>
    %2 = stablehlo.constant dense<1.000000e+00> : tensor<10xf32>
    %3 = stablehlo.compare  EQ, %0, %2 : (tensor<10xf32>, tensor<10xf32>) -> tensor<10xi1>
    %4 = stablehlo.constant dense<0x7F800000> : tensor<f32>
    %5 = stablehlo.constant dense<0x7F800000> : tensor<10xf32>
    %6 = stablehlo.multiply %arg0, %5 : tensor<10xf32>
    %7 = stablehlo.negate %arg0 : tensor<10xf32>
    %8 = stablehlo.multiply %7, %arg0 : tensor<10xf32>
    %9 = stablehlo.log_plus_one %8 : tensor<10xf32>
    %10 = stablehlo.negate %9 : tensor<10xf32>
    %11 = stablehlo.constant dense<5.000000e+00> : tensor<f32>
    %12 = stablehlo.constant dense<5.000000e+00> : tensor<10xf32>
    %13 = stablehlo.compare  LT, %10, %12 : (tensor<10xf32>, tensor<10xf32>) -> tensor<10xi1>
    %14 = stablehlo.constant dense<1.50140941> : tensor<f32>
    %15 = stablehlo.constant dense<1.50140941> : tensor<10xf32>
    %16 = stablehlo.constant dense<2.83297682> : tensor<f32>
    %17 = stablehlo.constant dense<2.83297682> : tensor<10xf32>
    %18 = stablehlo.select %13, %15, %17 : tensor<10xi1>, tensor<10xf32>
    %19 = stablehlo.constant dense<0.246640727> : tensor<f32>
    %20 = stablehlo.constant dense<0.246640727> : tensor<10xf32>
    %21 = stablehlo.constant dense<1.00167406> : tensor<f32>
    %22 = stablehlo.constant dense<1.00167406> : tensor<10xf32>
    %23 = stablehlo.select %13, %20, %22 : tensor<10xi1>, tensor<10xf32>
    %24 = stablehlo.constant dense<-0.00417768164> : tensor<f32>
    %25 = stablehlo.constant dense<-0.00417768164> : tensor<10xf32>
    %26 = stablehlo.constant dense<0.00943887047> : tensor<f32>
    %27 = stablehlo.constant dense<0.00943887047> : tensor<10xf32>
    %28 = stablehlo.select %13, %25, %27 : tensor<10xi1>, tensor<10xf32>
    %29 = stablehlo.constant dense<-0.00125372503> : tensor<f32>
    %30 = stablehlo.constant dense<-0.00125372503> : tensor<10xf32>
    %31 = stablehlo.constant dense<-0.0076224613> : tensor<f32>
    %32 = stablehlo.constant dense<-0.0076224613> : tensor<10xf32>
    %33 = stablehlo.select %13, %30, %32 : tensor<10xi1>, tensor<10xf32>
    %34 = stablehlo.constant dense<2.1858087E-4> : tensor<f32>
    %35 = stablehlo.constant dense<2.1858087E-4> : tensor<10xf32>
    %36 = stablehlo.constant dense<0.00573950773> : tensor<f32>
    %37 = stablehlo.constant dense<0.00573950773> : tensor<10xf32>
    %38 = stablehlo.select %13, %35, %37 : tensor<10xi1>, tensor<10xf32>
    %39 = stablehlo.constant dense<-4.39150654E-6> : tensor<f32>
    %40 = stablehlo.constant dense<-4.39150654E-6> : tensor<10xf32>
    %41 = stablehlo.constant dense<-0.00367342844> : tensor<f32>
    %42 = stablehlo.constant dense<-0.00367342844> : tensor<10xf32>
    %43 = stablehlo.select %13, %40, %42 : tensor<10xi1>, tensor<10xf32>
    %44 = stablehlo.constant dense<-3.5233877E-6> : tensor<f32>
    %45 = stablehlo.constant dense<-3.5233877E-6> : tensor<10xf32>
    %46 = stablehlo.constant dense<0.00134934322> : tensor<f32>
    %47 = stablehlo.constant dense<0.00134934322> : tensor<10xf32>
    %48 = stablehlo.select %13, %45, %47 : tensor<10xi1>, tensor<10xf32>
    %49 = stablehlo.constant dense<3.43273939E-7> : tensor<f32>
    %50 = stablehlo.constant dense<3.43273939E-7> : tensor<10xf32>
    %51 = stablehlo.constant dense<1.00950558E-4> : tensor<f32>
    %52 = stablehlo.constant dense<1.00950558E-4> : tensor<10xf32>
    %53 = stablehlo.select %13, %50, %52 : tensor<10xi1>, tensor<10xf32>
    %54 = stablehlo.constant dense<2.81022636E-8> : tensor<f32>
    %55 = stablehlo.constant dense<2.81022636E-8> : tensor<10xf32>
    %56 = stablehlo.constant dense<-2.00214257E-4> : tensor<f32>
    %57 = stablehlo.constant dense<-2.00214257E-4> : tensor<10xf32>
    %58 = stablehlo.select %13, %55, %57 : tensor<10xi1>, tensor<10xf32>
    %59 = stablehlo.constant dense<2.500000e+00> : tensor<f32>
    %60 = stablehlo.constant dense<2.500000e+00> : tensor<10xf32>
    %61 = stablehlo.subtract %10, %60 : tensor<10xf32>
    %62 = stablehlo.sqrt %10 : tensor<10xf32>
    %63 = stablehlo.constant dense<3.000000e+00> : tensor<f32>
    %64 = stablehlo.constant dense<3.000000e+00> : tensor<10xf32>
    %65 = stablehlo.subtract %62, %64 : tensor<10xf32>
    %66 = stablehlo.select %13, %61, %65 : tensor<10xi1>, tensor<10xf32>
    %67 = stablehlo.multiply %58, %66 : tensor<10xf32>
    %68 = stablehlo.add %53, %67 : tensor<10xf32>
    %69 = stablehlo.multiply %68, %66 : tensor<10xf32>
    %70 = stablehlo.add %48, %69 : tensor<10xf32>
    %71 = stablehlo.multiply %70, %66 : tensor<10xf32>
    %72 = stablehlo.add %43, %71 : tensor<10xf32>
    %73 = stablehlo.multiply %72, %66 : tensor<10xf32>
    %74 = stablehlo.add %38, %73 : tensor<10xf32>
    %75 = stablehlo.multiply %74, %66 : tensor<10xf32>
    %76 = stablehlo.add %33, %75 : tensor<10xf32>
    %77 = stablehlo.multiply %76, %66 : tensor<10xf32>
    %78 = stablehlo.add %28, %77 : tensor<10xf32>
    %79 = stablehlo.multiply %78, %66 : tensor<10xf32>
    %80 = stablehlo.add %23, %79 : tensor<10xf32>
    %81 = stablehlo.multiply %80, %66 : tensor<10xf32>
    %82 = stablehlo.add %18, %81 : tensor<10xf32>
    %83 = stablehlo.multiply %82, %arg0 : tensor<10xf32>
    %84 = stablehlo.select %3, %6, %83 : tensor<10xi1>, tensor<10xf32>
    return %84 : tensor<10xf32>
  }
  func.func @update(%arg0: tensor<128x784xf32>, %arg1: tensor<128x10xf32>) {
    %0 = "ml_program.global_load"() {global = @_opt_state$0} : () -> tensor<784x128xf32>
    %1 = "ml_program.global_load"() {global = @_opt_state$1} : () -> tensor<784x128xf32>
    %2 = "ml_program.global_load"() {global = @_opt_state$2} : () -> tensor<128xf32>
    %3 = "ml_program.global_load"() {global = @_opt_state$3} : () -> tensor<128xf32>
    %4 = "ml_program.global_load"() {global = @_opt_state$4} : () -> tensor<128x128xf32>
    %5 = "ml_program.global_load"() {global = @_opt_state$5} : () -> tensor<128x128xf32>
    %6 = "ml_program.global_load"() {global = @_opt_state$6} : () -> tensor<128xf32>
    %7 = "ml_program.global_load"() {global = @_opt_state$7} : () -> tensor<128xf32>
    %8 = "ml_program.global_load"() {global = @_opt_state$8} : () -> tensor<128x10xf32>
    %9 = "ml_program.global_load"() {global = @_opt_state$9} : () -> tensor<128x10xf32>
    %10 = "ml_program.global_load"() {global = @_opt_state$10} : () -> tensor<10xf32>
    %11 = "ml_program.global_load"() {global = @_opt_state$11} : () -> tensor<10xf32>
    %12:12 = call @jit__update_step$main(%arg0, %arg1, %0, %1, %2, %3, %4, %5, %6, %7, %8, %9, %10, %11) : (tensor<128x784xf32>, tensor<128x10xf32>, tensor<784x128xf32>, tensor<784x128xf32>, tensor<128xf32>, tensor<128xf32>, tensor<128x128xf32>, tensor<128x128xf32>, tensor<128xf32>, tensor<128xf32>, tensor<128x10xf32>, tensor<128x10xf32>, tensor<10xf32>, tensor<10xf32>) -> (tensor<784x128xf32>, tensor<784x128xf32>, tensor<128xf32>, tensor<128xf32>, tensor<128x128xf32>, tensor<128x128xf32>, tensor<128xf32>, tensor<128xf32>, tensor<128x10xf32>, tensor<128x10xf32>, tensor<10xf32>, tensor<10xf32>)
    "ml_program.global_store"(%12#0) {global = @_opt_state$0} : (tensor<784x128xf32>) -> ()
    "ml_program.global_store"(%12#1) {global = @_opt_state$1} : (tensor<784x128xf32>) -> ()
    "ml_program.global_store"(%12#2) {global = @_opt_state$2} : (tensor<128xf32>) -> ()
    "ml_program.global_store"(%12#3) {global = @_opt_state$3} : (tensor<128xf32>) -> ()
    "ml_program.global_store"(%12#4) {global = @_opt_state$4} : (tensor<128x128xf32>) -> ()
    "ml_program.global_store"(%12#5) {global = @_opt_state$5} : (tensor<128x128xf32>) -> ()
    "ml_program.global_store"(%12#6) {global = @_opt_state$6} : (tensor<128xf32>) -> ()
    "ml_program.global_store"(%12#7) {global = @_opt_state$7} : (tensor<128xf32>) -> ()
    "ml_program.global_store"(%12#8) {global = @_opt_state$8} : (tensor<128x10xf32>) -> ()
    "ml_program.global_store"(%12#9) {global = @_opt_state$9} : (tensor<128x10xf32>) -> ()
    "ml_program.global_store"(%12#10) {global = @_opt_state$10} : (tensor<10xf32>) -> ()
    "ml_program.global_store"(%12#11) {global = @_opt_state$11} : (tensor<10xf32>) -> ()
    return
  }
  func.func private @jit__update_step$main(%arg0: tensor<128x784xf32> {mhlo.sharding = ""}, %arg1: tensor<128x10xf32> {mhlo.sharding = ""}, %arg2: tensor<784x128xf32> {mhlo.sharding = ""}, %arg3: tensor<784x128xf32> {mhlo.sharding = ""}, %arg4: tensor<128xf32> {mhlo.sharding = ""}, %arg5: tensor<128xf32> {mhlo.sharding = ""}, %arg6: tensor<128x128xf32> {mhlo.sharding = ""}, %arg7: tensor<128x128xf32> {mhlo.sharding = ""}, %arg8: tensor<128xf32> {mhlo.sharding = ""}, %arg9: tensor<128xf32> {mhlo.sharding = ""}, %arg10: tensor<128x10xf32> {mhlo.sharding = ""}, %arg11: tensor<128x10xf32> {mhlo.sharding = ""}, %arg12: tensor<10xf32> {mhlo.sharding = ""}, %arg13: tensor<10xf32> {mhlo.sharding = ""}) -> (tensor<784x128xf32>, tensor<784x128xf32>, tensor<128xf32>, tensor<128xf32>, tensor<128x128xf32>, tensor<128x128xf32>, tensor<128xf32>, tensor<128xf32>, tensor<128x10xf32>, tensor<128x10xf32>, tensor<10xf32>, tensor<10xf32>) {
    %0 = "stablehlo.dot_general"(%arg0, %arg2) {dot_dimension_numbers = #stablehlo.dot<lhs_contracting_dimensions = [1], rhs_contracting_dimensions = [0]>, precision_config = [#stablehlo<precision DEFAULT>, #stablehlo<precision DEFAULT>]} : (tensor<128x784xf32>, tensor<784x128xf32>) -> tensor<128x128xf32>
    %1 = stablehlo.broadcast_in_dim %arg4, dims = [1] : (tensor<128xf32>) -> tensor<1x128xf32>
    %2 = stablehlo.broadcast_in_dim %1, dims = [0, 1] : (tensor<1x128xf32>) -> tensor<128x128xf32>
    %3 = stablehlo.add %0, %2 : tensor<128x128xf32>
    %4 = call @jit__update_step$relu(%3) : (tensor<128x128xf32>) -> tensor<128x128xf32>
    %5 = stablehlo.constant dense<0.000000e+00> : tensor<f32>
    %6 = stablehlo.broadcast_in_dim %5, dims = [] : (tensor<f32>) -> tensor<128x128xf32>
    %7 = stablehlo.compare  GT, %3, %6,  FLOAT : (tensor<128x128xf32>, tensor<128x128xf32>) -> tensor<128x128xi1>
    %8 = "stablehlo.dot_general"(%4, %arg6) {dot_dimension_numbers = #stablehlo.dot<lhs_contracting_dimensions = [1], rhs_contracting_dimensions = [0]>, precision_config = [#stablehlo<precision DEFAULT>, #stablehlo<precision DEFAULT>]} : (tensor<128x128xf32>, tensor<128x128xf32>) -> tensor<128x128xf32>
    %9 = stablehlo.broadcast_in_dim %arg8, dims = [1] : (tensor<128xf32>) -> tensor<1x128xf32>
    %10 = stablehlo.broadcast_in_dim %9, dims = [0, 1] : (tensor<1x128xf32>) -> tensor<128x128xf32>
    %11 = stablehlo.add %8, %10 : tensor<128x128xf32>
    %12 = call @jit__update_step$relu_0(%11) : (tensor<128x128xf32>) -> tensor<128x128xf32>
    %13 = stablehlo.constant dense<0.000000e+00> : tensor<f32>
    %14 = stablehlo.broadcast_in_dim %13, dims = [] : (tensor<f32>) -> tensor<128x128xf32>
    %15 = stablehlo.compare  GT, %11, %14,  FLOAT : (tensor<128x128xf32>, tensor<128x128xf32>) -> tensor<128x128xi1>
    %16 = "stablehlo.dot_general"(%12, %arg10) {dot_dimension_numbers = #stablehlo.dot<lhs_contracting_dimensions = [1], rhs_contracting_dimensions = [0]>, precision_config = [#stablehlo<precision DEFAULT>, #stablehlo<precision DEFAULT>]} : (tensor<128x128xf32>, tensor<128x10xf32>) -> tensor<128x10xf32>
    %17 = stablehlo.broadcast_in_dim %arg12, dims = [1] : (tensor<10xf32>) -> tensor<1x10xf32>
    %18 = stablehlo.broadcast_in_dim %17, dims = [0, 1] : (tensor<1x10xf32>) -> tensor<128x10xf32>
    %19 = stablehlo.add %16, %18 : tensor<128x10xf32>
    %20:2 = call @jit__update_step$log_softmax(%19) : (tensor<128x10xf32>) -> (tensor<128x1xf32>, tensor<128x10xf32>)
    %21 = stablehlo.constant dense<1.000000e+00> : tensor<f32>
    %22 = stablehlo.negate %21 : tensor<f32>
    %23 = stablehlo.constant dense<1.280000e+02> : tensor<f32>
    %24 = stablehlo.divide %22, %23 : tensor<f32>
    %25 = stablehlo.broadcast_in_dim %24, dims = [] : (tensor<f32>) -> tensor<128xf32>
    %26 = stablehlo.broadcast_in_dim %25, dims = [0] : (tensor<128xf32>) -> tensor<128x10xf32>
    %27 = stablehlo.multiply %26, %arg1 : tensor<128x10xf32>
    %28 = call @jit__update_step$log_softmax_1(%20#0, %20#1, %27) : (tensor<128x1xf32>, tensor<128x10xf32>, tensor<128x10xf32>) -> tensor<128x10xf32>
    %29 = stablehlo.constant dense<0.000000e+00> : tensor<f32>
    %30 = stablehlo.reduce(%28 init: %29) across dimensions = [0] : (tensor<128x10xf32>, tensor<f32>) -> tensor<10xf32>
     reducer(%arg14: tensor<f32>, %arg15: tensor<f32>)  {
      %112 = stablehlo.add %arg14, %arg15 : tensor<f32>
      stablehlo.return %112 : tensor<f32>
    }
    %31 = stablehlo.reshape %30 : (tensor<10xf32>) -> tensor<1x10xf32>
    %32 = stablehlo.constant dense<0.000000e+00> : tensor<f32>
    %33 = stablehlo.reduce(%31 init: %32) across dimensions = [0] : (tensor<1x10xf32>, tensor<f32>) -> tensor<10xf32>
     reducer(%arg14: tensor<f32>, %arg15: tensor<f32>)  {
      %112 = stablehlo.add %arg14, %arg15 : tensor<f32>
      stablehlo.return %112 : tensor<f32>
    }
    %34 = "stablehlo.dot_general"(%28, %12) {dot_dimension_numbers = #stablehlo.dot<lhs_contracting_dimensions = [0], rhs_contracting_dimensions = [0]>, precision_config = [#stablehlo<precision DEFAULT>, #stablehlo<precision DEFAULT>]} : (tensor<128x10xf32>, tensor<128x128xf32>) -> tensor<10x128xf32>
    %35 = stablehlo.transpose %34, dims = [1, 0] : (tensor<10x128xf32>) -> tensor<128x10xf32>
    %36 = "stablehlo.dot_general"(%28, %arg10) {dot_dimension_numbers = #stablehlo.dot<lhs_contracting_dimensions = [1], rhs_contracting_dimensions = [1]>, precision_config = [#stablehlo<precision DEFAULT>, #stablehlo<precision DEFAULT>]} : (tensor<128x10xf32>, tensor<128x10xf32>) -> tensor<128x128xf32>
    %37 = stablehlo.constant dense<0.000000e+00> : tensor<f32>
    %38 = stablehlo.broadcast_in_dim %37, dims = [] : (tensor<f32>) -> tensor<128x128xf32>
    %39 = stablehlo.constant dense<true> : tensor<i1>
    %40 = stablehlo.broadcast_in_dim %39, dims = [] : (tensor<i1>) -> tensor<128x128xi1>
    %41 = stablehlo.compare  EQ, %15, %40,  UNSIGNED : (tensor<128x128xi1>, tensor<128x128xi1>) -> tensor<128x128xi1>
    %42 = stablehlo.select %41, %36, %38 : tensor<128x128xi1>, tensor<128x128xf32>
    %43 = stablehlo.constant dense<0.000000e+00> : tensor<f32>
    %44 = stablehlo.reduce(%42 init: %43) across dimensions = [0] : (tensor<128x128xf32>, tensor<f32>) -> tensor<128xf32>
     reducer(%arg14: tensor<f32>, %arg15: tensor<f32>)  {
      %112 = stablehlo.add %arg14, %arg15 : tensor<f32>
      stablehlo.return %112 : tensor<f32>
    }
    %45 = stablehlo.reshape %44 : (tensor<128xf32>) -> tensor<1x128xf32>
    %46 = stablehlo.constant dense<0.000000e+00> : tensor<f32>
    %47 = stablehlo.reduce(%45 init: %46) across dimensions = [0] : (tensor<1x128xf32>, tensor<f32>) -> tensor<128xf32>
     reducer(%arg14: tensor<f32>, %arg15: tensor<f32>)  {
      %112 = stablehlo.add %arg14, %arg15 : tensor<f32>
      stablehlo.return %112 : tensor<f32>
    }
    %48 = "stablehlo.dot_general"(%42, %4) {dot_dimension_numbers = #stablehlo.dot<lhs_contracting_dimensions = [0], rhs_contracting_dimensions = [0]>, precision_config = [#stablehlo<precision DEFAULT>, #stablehlo<precision DEFAULT>]} : (tensor<128x128xf32>, tensor<128x128xf32>) -> tensor<128x128xf32>
    %49 = stablehlo.transpose %48, dims = [1, 0] : (tensor<128x128xf32>) -> tensor<128x128xf32>
    %50 = "stablehlo.dot_general"(%42, %arg6) {dot_dimension_numbers = #stablehlo.dot<lhs_contracting_dimensions = [1], rhs_contracting_dimensions = [1]>, precision_config = [#stablehlo<precision DEFAULT>, #stablehlo<precision DEFAULT>]} : (tensor<128x128xf32>, tensor<128x128xf32>) -> tensor<128x128xf32>
    %51 = stablehlo.constant dense<0.000000e+00> : tensor<f32>
    %52 = stablehlo.broadcast_in_dim %51, dims = [] : (tensor<f32>) -> tensor<128x128xf32>
    %53 = stablehlo.constant dense<true> : tensor<i1>
    %54 = stablehlo.broadcast_in_dim %53, dims = [] : (tensor<i1>) -> tensor<128x128xi1>
    %55 = stablehlo.compare  EQ, %7, %54,  UNSIGNED : (tensor<128x128xi1>, tensor<128x128xi1>) -> tensor<128x128xi1>
    %56 = stablehlo.select %55, %50, %52 : tensor<128x128xi1>, tensor<128x128xf32>
    %57 = stablehlo.constant dense<0.000000e+00> : tensor<f32>
    %58 = stablehlo.reduce(%56 init: %57) across dimensions = [0] : (tensor<128x128xf32>, tensor<f32>) -> tensor<128xf32>
     reducer(%arg14: tensor<f32>, %arg15: tensor<f32>)  {
      %112 = stablehlo.add %arg14, %arg15 : tensor<f32>
      stablehlo.return %112 : tensor<f32>
    }
    %59 = stablehlo.reshape %58 : (tensor<128xf32>) -> tensor<1x128xf32>
    %60 = stablehlo.constant dense<0.000000e+00> : tensor<f32>
    %61 = stablehlo.reduce(%59 init: %60) across dimensions = [0] : (tensor<1x128xf32>, tensor<f32>) -> tensor<128xf32>
     reducer(%arg14: tensor<f32>, %arg15: tensor<f32>)  {
      %112 = stablehlo.add %arg14, %arg15 : tensor<f32>
      stablehlo.return %112 : tensor<f32>
    }
    %62 = "stablehlo.dot_general"(%56, %arg0) {dot_dimension_numbers = #stablehlo.dot<lhs_contracting_dimensions = [0], rhs_contracting_dimensions = [0]>, precision_config = [#stablehlo<precision DEFAULT>, #stablehlo<precision DEFAULT>]} : (tensor<128x128xf32>, tensor<128x784xf32>) -> tensor<128x784xf32>
    %63 = stablehlo.transpose %62, dims = [1, 0] : (tensor<128x784xf32>) -> tensor<784x128xf32>
    %64 = stablehlo.constant dense<0.899999976> : tensor<f32>
    %65 = stablehlo.broadcast_in_dim %64, dims = [] : (tensor<f32>) -> tensor<784x128xf32>
    %66 = stablehlo.multiply %65, %arg3 : tensor<784x128xf32>
    %67 = stablehlo.add %66, %63 : tensor<784x128xf32>
    %68 = stablehlo.constant dense<1.000000e-03> : tensor<f32>
    %69 = stablehlo.broadcast_in_dim %68, dims = [] : (tensor<f32>) -> tensor<784x128xf32>
    %70 = stablehlo.multiply %69, %67 : tensor<784x128xf32>
    %71 = stablehlo.subtract %arg2, %70 : tensor<784x128xf32>
    %72 = stablehlo.constant dense<0.899999976> : tensor<f32>
    %73 = stablehlo.broadcast_in_dim %72, dims = [] : (tensor<f32>) -> tensor<128xf32>
    %74 = stablehlo.multiply %73, %arg5 : tensor<128xf32>
    %75 = stablehlo.add %74, %61 : tensor<128xf32>
    %76 = stablehlo.constant dense<1.000000e-03> : tensor<f32>
    %77 = stablehlo.broadcast_in_dim %76, dims = [] : (tensor<f32>) -> tensor<128xf32>
    %78 = stablehlo.multiply %77, %75 : tensor<128xf32>
    %79 = stablehlo.subtract %arg4, %78 : tensor<128xf32>
    %80 = stablehlo.constant dense<0.899999976> : tensor<f32>
    %81 = stablehlo.broadcast_in_dim %80, dims = [] : (tensor<f32>) -> tensor<128x128xf32>
    %82 = stablehlo.multiply %81, %arg7 : tensor<128x128xf32>
    %83 = stablehlo.add %82, %49 : tensor<128x128xf32>
    %84 = stablehlo.constant dense<1.000000e-03> : tensor<f32>
    %85 = stablehlo.broadcast_in_dim %84, dims = [] : (tensor<f32>) -> tensor<128x128xf32>
    %86 = stablehlo.multiply %85, %83 : tensor<128x128xf32>
    %87 = stablehlo.subtract %arg6, %86 : tensor<128x128xf32>
    %88 = stablehlo.constant dense<0.899999976> : tensor<f32>
    %89 = stablehlo.broadcast_in_dim %88, dims = [] : (tensor<f32>) -> tensor<128xf32>
    %90 = stablehlo.multiply %89, %arg9 : tensor<128xf32>
    %91 = stablehlo.add %90, %47 : tensor<128xf32>
    %92 = stablehlo.constant dense<1.000000e-03> : tensor<f32>
    %93 = stablehlo.broadcast_in_dim %92, dims = [] : (tensor<f32>) -> tensor<128xf32>
    %94 = stablehlo.multiply %93, %91 : tensor<128xf32>
    %95 = stablehlo.subtract %arg8, %94 : tensor<128xf32>
    %96 = stablehlo.constant dense<0.899999976> : tensor<f32>
    %97 = stablehlo.broadcast_in_dim %96, dims = [] : (tensor<f32>) -> tensor<128x10xf32>
    %98 = stablehlo.multiply %97, %arg11 : tensor<128x10xf32>
    %99 = stablehlo.add %98, %35 : tensor<128x10xf32>
    %100 = stablehlo.constant dense<1.000000e-03> : tensor<f32>
    %101 = stablehlo.broadcast_in_dim %100, dims = [] : (tensor<f32>) -> tensor<128x10xf32>
    %102 = stablehlo.multiply %101, %99 : tensor<128x10xf32>
    %103 = stablehlo.subtract %arg10, %102 : tensor<128x10xf32>
    %104 = stablehlo.constant dense<0.899999976> : tensor<f32>
    %105 = stablehlo.broadcast_in_dim %104, dims = [] : (tensor<f32>) -> tensor<10xf32>
    %106 = stablehlo.multiply %105, %arg13 : tensor<10xf32>
    %107 = stablehlo.add %106, %33 : tensor<10xf32>
    %108 = stablehlo.constant dense<1.000000e-03> : tensor<f32>
    %109 = stablehlo.broadcast_in_dim %108, dims = [] : (tensor<f32>) -> tensor<10xf32>
    %110 = stablehlo.multiply %109, %107 : tensor<10xf32>
    %111 = stablehlo.subtract %arg12, %110 : tensor<10xf32>
    return %71, %67, %79, %75, %87, %83, %95, %91, %103, %99, %111, %107 : tensor<784x128xf32>, tensor<784x128xf32>, tensor<128xf32>, tensor<128xf32>, tensor<128x128xf32>, tensor<128x128xf32>, tensor<128xf32>, tensor<128xf32>, tensor<128x10xf32>, tensor<128x10xf32>, tensor<10xf32>, tensor<10xf32>
  }
  func.func private @jit__update_step$relu(%arg0: tensor<128x128xf32>) -> tensor<128x128xf32> {
    %0 = stablehlo.constant dense<0.000000e+00> : tensor<f32>
    %1 = stablehlo.broadcast_in_dim %0, dims = [] : (tensor<f32>) -> tensor<128x128xf32>
    %2 = stablehlo.maximum %arg0, %1 : tensor<128x128xf32>
    return %2 : tensor<128x128xf32>
  }
  func.func private @jit__update_step$relu_0(%arg0: tensor<128x128xf32>) -> tensor<128x128xf32> {
    %0 = stablehlo.constant dense<0.000000e+00> : tensor<f32>
    %1 = stablehlo.broadcast_in_dim %0, dims = [] : (tensor<f32>) -> tensor<128x128xf32>
    %2 = stablehlo.maximum %arg0, %1 : tensor<128x128xf32>
    return %2 : tensor<128x128xf32>
  }
  func.func private @jit__update_step$log_softmax(%arg0: tensor<128x10xf32>) -> (tensor<128x1xf32>, tensor<128x10xf32>) {
    %0 = stablehlo.constant dense<0xFF800000> : tensor<f32>
    %1 = stablehlo.reduce(%arg0 init: %0) across dimensions = [1] : (tensor<128x10xf32>, tensor<f32>) -> tensor<128xf32>
     reducer(%arg1: tensor<f32>, %arg2: tensor<f32>)  {
      %9 = stablehlo.maximum %arg1, %arg2 : tensor<f32>
      stablehlo.return %9 : tensor<f32>
    }
    %2 = stablehlo.broadcast_in_dim %1, dims = [0] : (tensor<128xf32>) -> tensor<128x1xf32>
    %3 = stablehlo.broadcast_in_dim %2, dims = [0, 1] : (tensor<128x1xf32>) -> tensor<128x10xf32>
    %4 = stablehlo.subtract %arg0, %3 : tensor<128x10xf32>
    %5 = stablehlo.exponential %4 : tensor<128x10xf32>
    %6 = stablehlo.constant dense<0.000000e+00> : tensor<f32>
    %7 = stablehlo.reduce(%5 init: %6) across dimensions = [1] : (tensor<128x10xf32>, tensor<f32>) -> tensor<128xf32>
     reducer(%arg1: tensor<f32>, %arg2: tensor<f32>)  {
      %9 = stablehlo.add %arg1, %arg2 : tensor<f32>
      stablehlo.return %9 : tensor<f32>
    }
    %8 = stablehlo.broadcast_in_dim %7, dims = [0] : (tensor<128xf32>) -> tensor<128x1xf32>
    return %8, %5 : tensor<128x1xf32>, tensor<128x10xf32>
  }
  func.func private @jit__update_step$log_softmax_1(%arg0: tensor<128x1xf32>, %arg1: tensor<128x10xf32>, %arg2: tensor<128x10xf32>) -> tensor<128x10xf32> {
    %0 = stablehlo.negate %arg2 : tensor<128x10xf32>
    %1 = stablehlo.constant dense<0.000000e+00> : tensor<f32>
    %2 = stablehlo.reduce(%0 init: %1) across dimensions = [1] : (tensor<128x10xf32>, tensor<f32>) -> tensor<128xf32>
     reducer(%arg3: tensor<f32>, %arg4: tensor<f32>)  {
      %10 = stablehlo.add %arg3, %arg4 : tensor<f32>
      stablehlo.return %10 : tensor<f32>
    }
    %3 = stablehlo.reshape %2 : (tensor<128xf32>) -> tensor<128x1xf32>
    %4 = stablehlo.divide %3, %arg0 : tensor<128x1xf32>
    %5 = stablehlo.constant dense<0.000000e+00> : tensor<f32>
    %6 = stablehlo.reduce(%4 init: %5) across dimensions = [1] : (tensor<128x1xf32>, tensor<f32>) -> tensor<128xf32>
     reducer(%arg3: tensor<f32>, %arg4: tensor<f32>)  {
      %10 = stablehlo.add %arg3, %arg4 : tensor<f32>
      stablehlo.return %10 : tensor<f32>
    }
    %7 = stablehlo.broadcast_in_dim %6, dims = [0] : (tensor<128xf32>) -> tensor<128x10xf32>
    %8 = stablehlo.multiply %7, %arg1 : tensor<128x10xf32>
    %9 = stablehlo.add %arg2, %8 : tensor<128x10xf32>
    return %9 : tensor<128x10xf32>
  }
  func.func @forward(%arg0: tensor<128x784xf32>) -> tensor<128x10xf32> {
    %0 = "ml_program.global_load"() {global = @_opt_state$0} : () -> tensor<784x128xf32>
    %1 = "ml_program.global_load"() {global = @_opt_state$2} : () -> tensor<128xf32>
    %2 = "ml_program.global_load"() {global = @_opt_state$4} : () -> tensor<128x128xf32>
    %3 = "ml_program.global_load"() {global = @_opt_state$6} : () -> tensor<128xf32>
    %4 = "ml_program.global_load"() {global = @_opt_state$8} : () -> tensor<128x10xf32>
    %5 = "ml_program.global_load"() {global = @_opt_state$10} : () -> tensor<10xf32>
    %6 = call @jit__forward$main(%0, %1, %2, %3, %4, %5, %arg0) : (tensor<784x128xf32>, tensor<128xf32>, tensor<128x128xf32>, tensor<128xf32>, tensor<128x10xf32>, tensor<10xf32>, tensor<128x784xf32>) -> tensor<128x10xf32>
    return %6 : tensor<128x10xf32>
  }
  func.func private @jit__forward$main(%arg0: tensor<784x128xf32> {mhlo.sharding = ""}, %arg1: tensor<128xf32> {mhlo.sharding = ""}, %arg2: tensor<128x128xf32> {mhlo.sharding = ""}, %arg3: tensor<128xf32> {mhlo.sharding = ""}, %arg4: tensor<128x10xf32> {mhlo.sharding = ""}, %arg5: tensor<10xf32> {mhlo.sharding = ""}, %arg6: tensor<128x784xf32> {mhlo.sharding = ""}) -> tensor<128x10xf32> {
    %0 = "stablehlo.dot_general"(%arg6, %arg0) {dot_dimension_numbers = #stablehlo.dot<lhs_contracting_dimensions = [1], rhs_contracting_dimensions = [0]>, precision_config = [#stablehlo<precision DEFAULT>, #stablehlo<precision DEFAULT>]} : (tensor<128x784xf32>, tensor<784x128xf32>) -> tensor<128x128xf32>
    %1 = stablehlo.broadcast_in_dim %arg1, dims = [1] : (tensor<128xf32>) -> tensor<1x128xf32>
    %2 = stablehlo.broadcast_in_dim %1, dims = [0, 1] : (tensor<1x128xf32>) -> tensor<128x128xf32>
    %3 = stablehlo.add %0, %2 : tensor<128x128xf32>
    %4 = call @jit__forward$relu(%3) : (tensor<128x128xf32>) -> tensor<128x128xf32>
    %5 = "stablehlo.dot_general"(%4, %arg2) {dot_dimension_numbers = #stablehlo.dot<lhs_contracting_dimensions = [1], rhs_contracting_dimensions = [0]>, precision_config = [#stablehlo<precision DEFAULT>, #stablehlo<precision DEFAULT>]} : (tensor<128x128xf32>, tensor<128x128xf32>) -> tensor<128x128xf32>
    %6 = stablehlo.broadcast_in_dim %arg3, dims = [1] : (tensor<128xf32>) -> tensor<1x128xf32>
    %7 = stablehlo.broadcast_in_dim %6, dims = [0, 1] : (tensor<1x128xf32>) -> tensor<128x128xf32>
    %8 = stablehlo.add %5, %7 : tensor<128x128xf32>
    %9 = call @jit__forward$relu_0(%8) : (tensor<128x128xf32>) -> tensor<128x128xf32>
    %10 = "stablehlo.dot_general"(%9, %arg4) {dot_dimension_numbers = #stablehlo.dot<lhs_contracting_dimensions = [1], rhs_contracting_dimensions = [0]>, precision_config = [#stablehlo<precision DEFAULT>, #stablehlo<precision DEFAULT>]} : (tensor<128x128xf32>, tensor<128x10xf32>) -> tensor<128x10xf32>
    %11 = stablehlo.broadcast_in_dim %arg5, dims = [1] : (tensor<10xf32>) -> tensor<1x10xf32>
    %12 = stablehlo.broadcast_in_dim %11, dims = [0, 1] : (tensor<1x10xf32>) -> tensor<128x10xf32>
    %13 = stablehlo.add %10, %12 : tensor<128x10xf32>
    %14 = call @jit__forward$log_softmax(%13) : (tensor<128x10xf32>) -> tensor<128x10xf32>
    return %14 : tensor<128x10xf32>
  }
  func.func private @jit__forward$relu(%arg0: tensor<128x128xf32>) -> tensor<128x128xf32> {
    %0 = stablehlo.constant dense<0.000000e+00> : tensor<f32>
    %1 = stablehlo.broadcast_in_dim %0, dims = [] : (tensor<f32>) -> tensor<128x128xf32>
    %2 = stablehlo.maximum %arg0, %1 : tensor<128x128xf32>
    return %2 : tensor<128x128xf32>
  }
  func.func private @jit__forward$relu_0(%arg0: tensor<128x128xf32>) -> tensor<128x128xf32> {
    %0 = stablehlo.constant dense<0.000000e+00> : tensor<f32>
    %1 = stablehlo.broadcast_in_dim %0, dims = [] : (tensor<f32>) -> tensor<128x128xf32>
    %2 = stablehlo.maximum %arg0, %1 : tensor<128x128xf32>
    return %2 : tensor<128x128xf32>
  }
  func.func private @jit__forward$log_softmax(%arg0: tensor<128x10xf32>) -> tensor<128x10xf32> {
    %0 = stablehlo.constant dense<0xFF800000> : tensor<f32>
    %1 = stablehlo.reduce(%arg0 init: %0) across dimensions = [1] : (tensor<128x10xf32>, tensor<f32>) -> tensor<128xf32>
     reducer(%arg1: tensor<f32>, %arg2: tensor<f32>)  {
      %12 = stablehlo.maximum %arg1, %arg2 : tensor<f32>
      stablehlo.return %12 : tensor<f32>
    }
    %2 = stablehlo.broadcast_in_dim %1, dims = [0] : (tensor<128xf32>) -> tensor<128x1xf32>
    %3 = stablehlo.broadcast_in_dim %2, dims = [0, 1] : (tensor<128x1xf32>) -> tensor<128x10xf32>
    %4 = stablehlo.subtract %arg0, %3 : tensor<128x10xf32>
    %5 = stablehlo.exponential %4 : tensor<128x10xf32>
    %6 = stablehlo.constant dense<0.000000e+00> : tensor<f32>
    %7 = stablehlo.reduce(%5 init: %6) across dimensions = [1] : (tensor<128x10xf32>, tensor<f32>) -> tensor<128xf32>
     reducer(%arg1: tensor<f32>, %arg2: tensor<f32>)  {
      %12 = stablehlo.add %arg1, %arg2 : tensor<f32>
      stablehlo.return %12 : tensor<f32>
    }
    %8 = stablehlo.broadcast_in_dim %7, dims = [0] : (tensor<128xf32>) -> tensor<128x1xf32>
    %9 = stablehlo.log %8 : tensor<128x1xf32>
    %10 = stablehlo.broadcast_in_dim %9, dims = [0, 1] : (tensor<128x1xf32>) -> tensor<128x10xf32>
    %11 = stablehlo.subtract %4, %10 : tensor<128x10xf32>
    return %11 : tensor<128x10xf32>
  }
}
